<?xml version="1.0"?>
<net name="torch_jit" version="11">
	<layers>
		<layer id="0" name="image" type="Parameter" version="opset1">
			<data shape="?,3,416,416" element_type="f32" />
			<rt_info>
				<attribute name="old_api_map_element_type" version="0" value="f16" />
			</rt_info>
			<output>
				<port id="0" precision="FP32" names="image">
					<dim>-1</dim>
					<dim>3</dim>
					<dim>416</dim>
					<dim>416</dim>
				</port>
			</output>
		</layer>
		<layer id="1" name="Constant_13771_compressed" type="Const" version="opset1">
			<data element_type="f16" shape="1, 3, 1, 1" offset="0" size="6" />
			<rt_info>
				<attribute name="preprocessing" version="0" />
			</rt_info>
			<output>
				<port id="0" precision="FP16">
					<dim>1</dim>
					<dim>3</dim>
					<dim>1</dim>
					<dim>1</dim>
				</port>
			</output>
		</layer>
		<layer id="2" name="Constant_13771" type="Convert" version="opset1">
			<data destination_type="f32" />
			<rt_info>
				<attribute name="decompression" version="0" />
				<attribute name="preprocessing" version="0" />
			</rt_info>
			<input>
				<port id="0" precision="FP16">
					<dim>1</dim>
					<dim>3</dim>
					<dim>1</dim>
					<dim>1</dim>
				</port>
			</input>
			<output>
				<port id="1" precision="FP32">
					<dim>1</dim>
					<dim>3</dim>
					<dim>1</dim>
					<dim>1</dim>
				</port>
			</output>
		</layer>
		<layer id="3" name="Multiply_13781" type="Multiply" version="opset1">
			<data auto_broadcast="numpy" />
			<input>
				<port id="0" precision="FP32">
					<dim>-1</dim>
					<dim>3</dim>
					<dim>416</dim>
					<dim>416</dim>
				</port>
				<port id="1" precision="FP32">
					<dim>1</dim>
					<dim>3</dim>
					<dim>1</dim>
					<dim>1</dim>
				</port>
			</input>
			<output>
				<port id="2" precision="FP32">
					<dim>-1</dim>
					<dim>3</dim>
					<dim>416</dim>
					<dim>416</dim>
				</port>
			</output>
		</layer>
		<layer id="4" name="Constant_13783_compressed" type="Const" version="opset1">
			<data element_type="f16" shape="1, 3, 1, 1" offset="6" size="6" />
			<output>
				<port id="0" precision="FP16">
					<dim>1</dim>
					<dim>3</dim>
					<dim>1</dim>
					<dim>1</dim>
				</port>
			</output>
		</layer>
		<layer id="5" name="Constant_13783" type="Convert" version="opset1">
			<data destination_type="f32" />
			<rt_info>
				<attribute name="decompression" version="0" />
			</rt_info>
			<input>
				<port id="0" precision="FP16">
					<dim>1</dim>
					<dim>3</dim>
					<dim>1</dim>
					<dim>1</dim>
				</port>
			</input>
			<output>
				<port id="1" precision="FP32">
					<dim>1</dim>
					<dim>3</dim>
					<dim>1</dim>
					<dim>1</dim>
				</port>
			</output>
		</layer>
		<layer id="6" name="Divide_6735" type="Add" version="opset1">
			<data auto_broadcast="numpy" />
			<input>
				<port id="0" precision="FP32">
					<dim>-1</dim>
					<dim>3</dim>
					<dim>416</dim>
					<dim>416</dim>
				</port>
				<port id="1" precision="FP32">
					<dim>1</dim>
					<dim>3</dim>
					<dim>1</dim>
					<dim>1</dim>
				</port>
			</input>
			<output>
				<port id="2" precision="FP32">
					<dim>-1</dim>
					<dim>3</dim>
					<dim>416</dim>
					<dim>416</dim>
				</port>
			</output>
		</layer>
		<layer id="7" name="Constant_63917_compressed" type="Const" version="opset1">
			<data element_type="f16" shape="" offset="12" size="2" />
			<output>
				<port id="0" precision="FP16" />
			</output>
		</layer>
		<layer id="8" name="Constant_63917" type="Convert" version="opset1">
			<data destination_type="f32" />
			<rt_info>
				<attribute name="decompression" version="0" />
			</rt_info>
			<input>
				<port id="0" precision="FP16" />
			</input>
			<output>
				<port id="1" precision="FP32" />
			</output>
		</layer>
		<layer id="9" name="Constant_63918_compressed" type="Const" version="opset1">
			<data element_type="f16" shape="" offset="14" size="2" />
			<output>
				<port id="0" precision="FP16" />
			</output>
		</layer>
		<layer id="10" name="Constant_63918" type="Convert" version="opset1">
			<data destination_type="f32" />
			<rt_info>
				<attribute name="decompression" version="0" />
			</rt_info>
			<input>
				<port id="0" precision="FP16" />
			</input>
			<output>
				<port id="1" precision="FP32" />
			</output>
		</layer>
		<layer id="11" name="Constant_63919_compressed" type="Const" version="opset1">
			<data element_type="f16" shape="" offset="12" size="2" />
			<output>
				<port id="0" precision="FP16" />
			</output>
		</layer>
		<layer id="12" name="Constant_63919" type="Convert" version="opset1">
			<data destination_type="f32" />
			<rt_info>
				<attribute name="decompression" version="0" />
			</rt_info>
			<input>
				<port id="0" precision="FP16" />
			</input>
			<output>
				<port id="1" precision="FP32" />
			</output>
		</layer>
		<layer id="13" name="Constant_63920_compressed" type="Const" version="opset1">
			<data element_type="f16" shape="" offset="14" size="2" />
			<output>
				<port id="0" precision="FP16" />
			</output>
		</layer>
		<layer id="14" name="Constant_63920" type="Convert" version="opset1">
			<data destination_type="f32" />
			<rt_info>
				<attribute name="decompression" version="0" />
			</rt_info>
			<input>
				<port id="0" precision="FP16" />
			</input>
			<output>
				<port id="1" precision="FP32" />
			</output>
		</layer>
		<layer id="15" name="Divide_6735/fq_output_0" type="FakeQuantize" version="opset1">
			<data levels="256" auto_broadcast="numpy" />
			<input>
				<port id="0" precision="FP32">
					<dim>-1</dim>
					<dim>3</dim>
					<dim>416</dim>
					<dim>416</dim>
				</port>
				<port id="1" precision="FP32" />
				<port id="2" precision="FP32" />
				<port id="3" precision="FP32" />
				<port id="4" precision="FP32" />
			</input>
			<output>
				<port id="5" precision="FP32">
					<dim>-1</dim>
					<dim>3</dim>
					<dim>416</dim>
					<dim>416</dim>
				</port>
			</output>
		</layer>
		<layer id="16" name="Constant_12765" type="Const" version="opset1">
			<data element_type="i64" shape="2" offset="16" size="16" />
			<rt_info>
				<attribute name="precise" version="0" />
			</rt_info>
			<output>
				<port id="0" precision="I64">
					<dim>2</dim>
				</port>
			</output>
		</layer>
		<layer id="17" name="/backbone/stem/Constant_7" type="Const" version="opset1">
			<data element_type="i64" shape="1" offset="32" size="8" />
			<rt_info>
				<attribute name="precise" version="0" />
			</rt_info>
			<output>
				<port id="0" precision="I64" names="/backbone/stem/Constant_7_output_0">
					<dim>1</dim>
				</port>
			</output>
		</layer>
		<layer id="18" name="/backbone/stem/Constant_8" type="Const" version="opset1">
			<data element_type="i64" shape="1" offset="40" size="8" />
			<rt_info>
				<attribute name="precise" version="0" />
			</rt_info>
			<output>
				<port id="0" precision="I64" names="/backbone/stem/Constant_8_output_0">
					<dim>1</dim>
				</port>
			</output>
		</layer>
		<layer id="19" name="/backbone/stem/Shape" type="ShapeOf" version="opset3">
			<data output_type="i64" />
			<input>
				<port id="0" precision="FP32">
					<dim>-1</dim>
					<dim>3</dim>
					<dim>416</dim>
					<dim>416</dim>
				</port>
			</input>
			<output>
				<port id="1" precision="I64" names="/backbone/stem/Shape_1_output_0,/backbone/stem/Shape_2_output_0,/backbone/stem/Shape_output_0">
					<dim>4</dim>
				</port>
			</output>
		</layer>
		<layer id="20" name="Constant_12367" type="Const" version="opset1">
			<data element_type="i64" shape="1" offset="48" size="8" />
			<rt_info>
				<attribute name="precise" version="0" />
			</rt_info>
			<output>
				<port id="0" precision="I64">
					<dim>1</dim>
				</port>
			</output>
		</layer>
		<layer id="21" name="Constant_180" type="Const" version="opset1">
			<data element_type="i64" shape="" offset="56" size="8" />
			<rt_info>
				<attribute name="precise" version="0" />
			</rt_info>
			<output>
				<port id="0" precision="I64" />
			</output>
		</layer>
		<layer id="22" name="/backbone/stem/Gather_2" type="Gather" version="opset8">
			<data batch_dims="0" />
			<input>
				<port id="0" precision="I64">
					<dim>4</dim>
				</port>
				<port id="1" precision="I64">
					<dim>1</dim>
				</port>
				<port id="2" precision="I64" />
			</input>
			<output>
				<port id="3" precision="I64" names="/backbone/stem/Gather_2_output_0,/backbone/stem/Unsqueeze_2_output_0">
					<dim>1</dim>
				</port>
			</output>
		</layer>
		<layer id="23" name="/backbone/stem/Concat" type="Concat" version="opset1">
			<data axis="0" />
			<input>
				<port id="0" precision="I64">
					<dim>2</dim>
				</port>
				<port id="1" precision="I64">
					<dim>1</dim>
				</port>
				<port id="2" precision="I64">
					<dim>1</dim>
				</port>
				<port id="3" precision="I64">
					<dim>1</dim>
				</port>
			</input>
			<output>
				<port id="4" precision="I64">
					<dim>5</dim>
				</port>
			</output>
		</layer>
		<layer id="24" name="/backbone/stem/Reshape" type="Reshape" version="opset1">
			<data special_zero="true" />
			<input>
				<port id="0" precision="FP32">
					<dim>-1</dim>
					<dim>3</dim>
					<dim>416</dim>
					<dim>416</dim>
				</port>
				<port id="1" precision="I64">
					<dim>5</dim>
				</port>
			</input>
			<output>
				<port id="2" precision="FP32" names="/backbone/stem/Reshape_output_0">
					<dim>-1</dim>
					<dim>3</dim>
					<dim>208</dim>
					<dim>2</dim>
					<dim>416</dim>
				</port>
			</output>
		</layer>
		<layer id="25" name="Constant_12407" type="Const" version="opset1">
			<data element_type="i64" shape="2" offset="64" size="16" />
			<rt_info>
				<attribute name="precise" version="0" />
			</rt_info>
			<output>
				<port id="0" precision="I64">
					<dim>2</dim>
				</port>
			</output>
		</layer>
		<layer id="26" name="Constant_12408" type="Const" version="opset1">
			<data element_type="i64" shape="" offset="56" size="8" />
			<rt_info>
				<attribute name="precise" version="0" />
			</rt_info>
			<output>
				<port id="0" precision="I64" />
			</output>
		</layer>
		<layer id="27" name="Gather_12409" type="Gather" version="opset8">
			<data batch_dims="0" />
			<input>
				<port id="0" precision="I64">
					<dim>4</dim>
				</port>
				<port id="1" precision="I64">
					<dim>2</dim>
				</port>
				<port id="2" precision="I64" />
			</input>
			<output>
				<port id="3" precision="I64">
					<dim>2</dim>
				</port>
			</output>
		</layer>
		<layer id="28" name="Constant_12769" type="Const" version="opset1">
			<data element_type="i64" shape="1" offset="56" size="8" />
			<rt_info>
				<attribute name="precise" version="0" />
			</rt_info>
			<output>
				<port id="0" precision="I64">
					<dim>1</dim>
				</port>
			</output>
		</layer>
		<layer id="29" name="/backbone/stem/Constant_10" type="Const" version="opset1">
			<data element_type="i64" shape="1" offset="40" size="8" />
			<rt_info>
				<attribute name="precise" version="0" />
			</rt_info>
			<output>
				<port id="0" precision="I64" names="/backbone/stem/Constant_10_output_0">
					<dim>1</dim>
				</port>
			</output>
		</layer>
		<layer id="30" name="/backbone/stem/Constant_11" type="Const" version="opset1">
			<data element_type="i64" shape="1" offset="32" size="8" />
			<rt_info>
				<attribute name="precise" version="0" />
			</rt_info>
			<output>
				<port id="0" precision="I64" names="/backbone/stem/Constant_11_output_0">
					<dim>1</dim>
				</port>
			</output>
		</layer>
		<layer id="31" name="/backbone/stem/Constant_12" type="Const" version="opset1">
			<data element_type="i64" shape="1" offset="40" size="8" />
			<rt_info>
				<attribute name="precise" version="0" />
			</rt_info>
			<output>
				<port id="0" precision="I64" names="/backbone/stem/Constant_12_output_0">
					<dim>1</dim>
				</port>
			</output>
		</layer>
		<layer id="32" name="/backbone/stem/Concat_1" type="Concat" version="opset1">
			<data axis="0" />
			<input>
				<port id="0" precision="I64">
					<dim>2</dim>
				</port>
				<port id="1" precision="I64">
					<dim>1</dim>
				</port>
				<port id="2" precision="I64">
					<dim>1</dim>
				</port>
				<port id="3" precision="I64">
					<dim>1</dim>
				</port>
				<port id="4" precision="I64">
					<dim>1</dim>
				</port>
			</input>
			<output>
				<port id="5" precision="I64">
					<dim>6</dim>
				</port>
			</output>
		</layer>
		<layer id="33" name="/backbone/stem/Reshape_1" type="Reshape" version="opset1">
			<data special_zero="true" />
			<input>
				<port id="0" precision="FP32">
					<dim>-1</dim>
					<dim>3</dim>
					<dim>208</dim>
					<dim>2</dim>
					<dim>416</dim>
				</port>
				<port id="1" precision="I64">
					<dim>6</dim>
				</port>
			</input>
			<output>
				<port id="2" precision="FP32" names="/backbone/stem/Reshape_1_output_0">
					<dim>-1</dim>
					<dim>3</dim>
					<dim>208</dim>
					<dim>2</dim>
					<dim>-1</dim>
					<dim>2</dim>
				</port>
			</output>
		</layer>
		<layer id="34" name="Constant_223" type="Const" version="opset1">
			<data element_type="i64" shape="6" offset="80" size="48" />
			<output>
				<port id="0" precision="I64">
					<dim>6</dim>
				</port>
			</output>
		</layer>
		<layer id="35" name="/backbone/stem/Transpose" type="Transpose" version="opset1">
			<input>
				<port id="0" precision="FP32">
					<dim>-1</dim>
					<dim>3</dim>
					<dim>208</dim>
					<dim>2</dim>
					<dim>-1</dim>
					<dim>2</dim>
				</port>
				<port id="1" precision="I64">
					<dim>6</dim>
				</port>
			</input>
			<output>
				<port id="2" precision="FP32" names="/backbone/stem/Transpose_output_0">
					<dim>-1</dim>
					<dim>2</dim>
					<dim>2</dim>
					<dim>3</dim>
					<dim>208</dim>
					<dim>-1</dim>
				</port>
			</output>
		</layer>
		<layer id="36" name="Constant_12361" type="Const" version="opset1">
			<data element_type="i64" shape="1" offset="56" size="8" />
			<rt_info>
				<attribute name="precise" version="0" />
			</rt_info>
			<output>
				<port id="0" precision="I64">
					<dim>1</dim>
				</port>
			</output>
		</layer>
		<layer id="37" name="Constant_171" type="Const" version="opset1">
			<data element_type="i64" shape="" offset="56" size="8" />
			<rt_info>
				<attribute name="precise" version="0" />
			</rt_info>
			<output>
				<port id="0" precision="I64" />
			</output>
		</layer>
		<layer id="38" name="/backbone/stem/Gather" type="Gather" version="opset8">
			<data batch_dims="0" />
			<input>
				<port id="0" precision="I64">
					<dim>4</dim>
				</port>
				<port id="1" precision="I64">
					<dim>1</dim>
				</port>
				<port id="2" precision="I64" />
			</input>
			<output>
				<port id="3" precision="I64" names="/backbone/stem/Gather_output_0,/backbone/stem/Unsqueeze_3_output_0,/backbone/stem/Unsqueeze_6_output_0,/backbone/stem/Unsqueeze_output_0">
					<dim>1</dim>
				</port>
			</output>
		</layer>
		<layer id="39" name="Constant_12364" type="Const" version="opset1">
			<data element_type="i64" shape="1" offset="128" size="8" />
			<rt_info>
				<attribute name="precise" version="0" />
			</rt_info>
			<output>
				<port id="0" precision="I64">
					<dim>1</dim>
				</port>
			</output>
		</layer>
		<layer id="40" name="Constant_176" type="Const" version="opset1">
			<data element_type="i64" shape="" offset="56" size="8" />
			<rt_info>
				<attribute name="precise" version="0" />
			</rt_info>
			<output>
				<port id="0" precision="I64" />
			</output>
		</layer>
		<layer id="41" name="/backbone/stem/Gather_1" type="Gather" version="opset8">
			<data batch_dims="0" />
			<input>
				<port id="0" precision="I64">
					<dim>4</dim>
				</port>
				<port id="1" precision="I64">
					<dim>1</dim>
				</port>
				<port id="2" precision="I64" />
			</input>
			<output>
				<port id="3" precision="I64" names="/backbone/stem/Gather_1_output_0,/backbone/stem/Unsqueeze_1_output_0,/backbone/stem/Unsqueeze_4_output_0">
					<dim>1</dim>
				</port>
			</output>
		</layer>
		<layer id="42" name="Constant_12352" type="Const" version="opset1">
			<data element_type="i64" shape="1" offset="136" size="8" />
			<rt_info>
				<attribute name="precise" version="0" />
			</rt_info>
			<output>
				<port id="0" precision="I64">
					<dim>1</dim>
				</port>
			</output>
		</layer>
		<layer id="43" name="/backbone/stem/Mul" type="Multiply" version="opset1">
			<data auto_broadcast="numpy" />
			<input>
				<port id="0" precision="I64">
					<dim>1</dim>
				</port>
				<port id="1" precision="I64">
					<dim>1</dim>
				</port>
			</input>
			<output>
				<port id="2" precision="I64" names="/backbone/stem/Mul_output_0,/backbone/stem/Unsqueeze_7_output_0">
					<dim>1</dim>
				</port>
			</output>
		</layer>
		<layer id="44" name="/backbone/stem/Shape_4" type="ShapeOf" version="opset3">
			<data output_type="i64" />
			<input>
				<port id="0" precision="FP32">
					<dim>-1</dim>
					<dim>3</dim>
					<dim>208</dim>
					<dim>2</dim>
					<dim>-1</dim>
					<dim>2</dim>
				</port>
			</input>
			<output>
				<port id="1" precision="I64" names="/backbone/stem/Shape_4_output_0,/backbone/stem/Shape_5_output_0">
					<dim>6</dim>
				</port>
			</output>
		</layer>
		<layer id="45" name="Constant_12412" type="Const" version="opset1">
			<data element_type="i64" shape="2" offset="144" size="16" />
			<rt_info>
				<attribute name="precise" version="0" />
			</rt_info>
			<output>
				<port id="0" precision="I64">
					<dim>2</dim>
				</port>
			</output>
		</layer>
		<layer id="46" name="Constant_12413" type="Const" version="opset1">
			<data element_type="i64" shape="" offset="56" size="8" />
			<rt_info>
				<attribute name="precise" version="0" />
			</rt_info>
			<output>
				<port id="0" precision="I64" />
			</output>
		</layer>
		<layer id="47" name="Gather_12414" type="Gather" version="opset8">
			<data batch_dims="0" />
			<input>
				<port id="0" precision="I64">
					<dim>6</dim>
				</port>
				<port id="1" precision="I64">
					<dim>2</dim>
				</port>
				<port id="2" precision="I64" />
			</input>
			<output>
				<port id="3" precision="I64">
					<dim>2</dim>
				</port>
			</output>
		</layer>
		<layer id="48" name="/backbone/stem/Concat_2" type="Concat" version="opset1">
			<data axis="0" />
			<input>
				<port id="0" precision="I64">
					<dim>1</dim>
				</port>
				<port id="1" precision="I64">
					<dim>1</dim>
				</port>
				<port id="2" precision="I64">
					<dim>2</dim>
				</port>
			</input>
			<output>
				<port id="3" precision="I64" names="/backbone/stem/Concat_2_output_0">
					<dim>4</dim>
				</port>
			</output>
		</layer>
		<layer id="49" name="/backbone/stem/Reshape_2" type="Reshape" version="opset1">
			<data special_zero="true" />
			<input>
				<port id="0" precision="FP32">
					<dim>-1</dim>
					<dim>2</dim>
					<dim>2</dim>
					<dim>3</dim>
					<dim>208</dim>
					<dim>-1</dim>
				</port>
				<port id="1" precision="I64">
					<dim>4</dim>
				</port>
			</input>
			<output>
				<port id="2" precision="FP32" names="/backbone/stem/Reshape_2_output_0">
					<dim>-1</dim>
					<dim>12</dim>
					<dim>208</dim>
					<dim>-1</dim>
				</port>
			</output>
		</layer>
		<layer id="50" name="Constant_492503" type="Const" version="opset1">
			<data element_type="i8" shape="24, 12, 3, 3" offset="160" size="2592" />
			<output>
				<port id="0" precision="I8">
					<dim>24</dim>
					<dim>12</dim>
					<dim>3</dim>
					<dim>3</dim>
				</port>
			</output>
		</layer>
		<layer id="51" name="Convert_492504" type="Convert" version="opset1">
			<data destination_type="f32" />
			<input>
				<port id="0" precision="I8">
					<dim>24</dim>
					<dim>12</dim>
					<dim>3</dim>
					<dim>3</dim>
				</port>
			</input>
			<output>
				<port id="1" precision="FP32">
					<dim>24</dim>
					<dim>12</dim>
					<dim>3</dim>
					<dim>3</dim>
				</port>
			</output>
		</layer>
		<layer id="52" name="Constant_492505_compressed" type="Const" version="opset1">
			<data element_type="f16" shape="24, 1, 1, 1" offset="2752" size="48" />
			<output>
				<port id="0" precision="FP16">
					<dim>24</dim>
					<dim>1</dim>
					<dim>1</dim>
					<dim>1</dim>
				</port>
			</output>
		</layer>
		<layer id="53" name="Constant_492505" type="Convert" version="opset1">
			<data destination_type="f32" />
			<rt_info>
				<attribute name="decompression" version="0" />
			</rt_info>
			<input>
				<port id="0" precision="FP16">
					<dim>24</dim>
					<dim>1</dim>
					<dim>1</dim>
					<dim>1</dim>
				</port>
			</input>
			<output>
				<port id="1" precision="FP32">
					<dim>24</dim>
					<dim>1</dim>
					<dim>1</dim>
					<dim>1</dim>
				</port>
			</output>
		</layer>
		<layer id="54" name="/backbone/stem/conv/conv/Conv/WithoutBiases/fq_weights_1" type="Multiply" version="opset1">
			<data auto_broadcast="numpy" />
			<input>
				<port id="0" precision="FP32">
					<dim>24</dim>
					<dim>12</dim>
					<dim>3</dim>
					<dim>3</dim>
				</port>
				<port id="1" precision="FP32">
					<dim>24</dim>
					<dim>1</dim>
					<dim>1</dim>
					<dim>1</dim>
				</port>
			</input>
			<output>
				<port id="2" precision="FP32">
					<dim>24</dim>
					<dim>12</dim>
					<dim>3</dim>
					<dim>3</dim>
				</port>
			</output>
		</layer>
		<layer id="55" name="/backbone/stem/conv/conv/Conv/WithoutBiases" type="Convolution" version="opset1">
			<data strides="1, 1" dilations="1, 1" pads_begin="1, 1" pads_end="1, 1" auto_pad="explicit" />
			<input>
				<port id="0" precision="FP32">
					<dim>-1</dim>
					<dim>12</dim>
					<dim>208</dim>
					<dim>-1</dim>
				</port>
				<port id="1" precision="FP32">
					<dim>24</dim>
					<dim>12</dim>
					<dim>3</dim>
					<dim>3</dim>
				</port>
			</input>
			<output>
				<port id="2" precision="FP32">
					<dim>-1</dim>
					<dim>24</dim>
					<dim>208</dim>
					<dim>-1</dim>
				</port>
			</output>
		</layer>
		<layer id="56" name="Reshape_253_compressed" type="Const" version="opset1">
			<data element_type="f16" shape="1, 24, 1, 1" offset="2800" size="48" />
			<output>
				<port id="0" precision="FP16">
					<dim>1</dim>
					<dim>24</dim>
					<dim>1</dim>
					<dim>1</dim>
				</port>
			</output>
		</layer>
		<layer id="57" name="Reshape_253" type="Convert" version="opset1">
			<data destination_type="f32" />
			<rt_info>
				<attribute name="decompression" version="0" />
			</rt_info>
			<input>
				<port id="0" precision="FP16">
					<dim>1</dim>
					<dim>24</dim>
					<dim>1</dim>
					<dim>1</dim>
				</port>
			</input>
			<output>
				<port id="1" precision="FP32">
					<dim>1</dim>
					<dim>24</dim>
					<dim>1</dim>
					<dim>1</dim>
				</port>
			</output>
		</layer>
		<layer id="58" name="/backbone/stem/conv/conv/Conv" type="Add" version="opset1">
			<data auto_broadcast="numpy" />
			<input>
				<port id="0" precision="FP32">
					<dim>-1</dim>
					<dim>24</dim>
					<dim>208</dim>
					<dim>-1</dim>
				</port>
				<port id="1" precision="FP32">
					<dim>1</dim>
					<dim>24</dim>
					<dim>1</dim>
					<dim>1</dim>
				</port>
			</input>
			<output>
				<port id="2" precision="FP32" names="/backbone/stem/conv/conv/Conv_output_0">
					<dim>-1</dim>
					<dim>24</dim>
					<dim>208</dim>
					<dim>-1</dim>
				</port>
			</output>
		</layer>
		<layer id="59" name="/backbone/stem/conv/activate/Mul" type="Swish" version="opset4">
			<input>
				<port id="0" precision="FP32">
					<dim>-1</dim>
					<dim>24</dim>
					<dim>208</dim>
					<dim>-1</dim>
				</port>
			</input>
			<output>
				<port id="1" precision="FP32" names="/backbone/stem/conv/activate/Mul_output_0">
					<dim>-1</dim>
					<dim>24</dim>
					<dim>208</dim>
					<dim>-1</dim>
				</port>
			</output>
		</layer>
		<layer id="60" name="Constant_63927_compressed" type="Const" version="opset1">
			<data element_type="f16" shape="" offset="2848" size="2" />
			<output>
				<port id="0" precision="FP16" />
			</output>
		</layer>
		<layer id="61" name="Constant_63927" type="Convert" version="opset1">
			<data destination_type="f32" />
			<rt_info>
				<attribute name="decompression" version="0" />
			</rt_info>
			<input>
				<port id="0" precision="FP16" />
			</input>
			<output>
				<port id="1" precision="FP32" />
			</output>
		</layer>
		<layer id="62" name="Constant_63928_compressed" type="Const" version="opset1">
			<data element_type="f16" shape="" offset="2850" size="2" />
			<output>
				<port id="0" precision="FP16" />
			</output>
		</layer>
		<layer id="63" name="Constant_63928" type="Convert" version="opset1">
			<data destination_type="f32" />
			<rt_info>
				<attribute name="decompression" version="0" />
			</rt_info>
			<input>
				<port id="0" precision="FP16" />
			</input>
			<output>
				<port id="1" precision="FP32" />
			</output>
		</layer>
		<layer id="64" name="Constant_63929_compressed" type="Const" version="opset1">
			<data element_type="f16" shape="" offset="2848" size="2" />
			<output>
				<port id="0" precision="FP16" />
			</output>
		</layer>
		<layer id="65" name="Constant_63929" type="Convert" version="opset1">
			<data destination_type="f32" />
			<rt_info>
				<attribute name="decompression" version="0" />
			</rt_info>
			<input>
				<port id="0" precision="FP16" />
			</input>
			<output>
				<port id="1" precision="FP32" />
			</output>
		</layer>
		<layer id="66" name="Constant_63930_compressed" type="Const" version="opset1">
			<data element_type="f16" shape="" offset="2850" size="2" />
			<output>
				<port id="0" precision="FP16" />
			</output>
		</layer>
		<layer id="67" name="Constant_63930" type="Convert" version="opset1">
			<data destination_type="f32" />
			<rt_info>
				<attribute name="decompression" version="0" />
			</rt_info>
			<input>
				<port id="0" precision="FP16" />
			</input>
			<output>
				<port id="1" precision="FP32" />
			</output>
		</layer>
		<layer id="68" name="/backbone/stem/conv/activate/Mul/fq_output_0" type="FakeQuantize" version="opset1">
			<data levels="256" auto_broadcast="numpy" />
			<input>
				<port id="0" precision="FP32">
					<dim>-1</dim>
					<dim>24</dim>
					<dim>208</dim>
					<dim>-1</dim>
				</port>
				<port id="1" precision="FP32" />
				<port id="2" precision="FP32" />
				<port id="3" precision="FP32" />
				<port id="4" precision="FP32" />
			</input>
			<output>
				<port id="5" precision="FP32">
					<dim>-1</dim>
					<dim>24</dim>
					<dim>208</dim>
					<dim>-1</dim>
				</port>
			</output>
		</layer>
		<layer id="69" name="Constant_492507" type="Const" version="opset1">
			<data element_type="i8" shape="48, 24, 3, 3" offset="2852" size="10368" />
			<output>
				<port id="0" precision="I8">
					<dim>48</dim>
					<dim>24</dim>
					<dim>3</dim>
					<dim>3</dim>
				</port>
			</output>
		</layer>
		<layer id="70" name="Convert_492508" type="Convert" version="opset1">
			<data destination_type="f32" />
			<input>
				<port id="0" precision="I8">
					<dim>48</dim>
					<dim>24</dim>
					<dim>3</dim>
					<dim>3</dim>
				</port>
			</input>
			<output>
				<port id="1" precision="FP32">
					<dim>48</dim>
					<dim>24</dim>
					<dim>3</dim>
					<dim>3</dim>
				</port>
			</output>
		</layer>
		<layer id="71" name="Constant_492509_compressed" type="Const" version="opset1">
			<data element_type="f16" shape="48, 1, 1, 1" offset="13220" size="96" />
			<output>
				<port id="0" precision="FP16">
					<dim>48</dim>
					<dim>1</dim>
					<dim>1</dim>
					<dim>1</dim>
				</port>
			</output>
		</layer>
		<layer id="72" name="Constant_492509" type="Convert" version="opset1">
			<data destination_type="f32" />
			<rt_info>
				<attribute name="decompression" version="0" />
			</rt_info>
			<input>
				<port id="0" precision="FP16">
					<dim>48</dim>
					<dim>1</dim>
					<dim>1</dim>
					<dim>1</dim>
				</port>
			</input>
			<output>
				<port id="1" precision="FP32">
					<dim>48</dim>
					<dim>1</dim>
					<dim>1</dim>
					<dim>1</dim>
				</port>
			</output>
		</layer>
		<layer id="73" name="/backbone/stage1/stage1.0/conv/Conv/WithoutBiases/fq_weights_1" type="Multiply" version="opset1">
			<data auto_broadcast="numpy" />
			<input>
				<port id="0" precision="FP32">
					<dim>48</dim>
					<dim>24</dim>
					<dim>3</dim>
					<dim>3</dim>
				</port>
				<port id="1" precision="FP32">
					<dim>48</dim>
					<dim>1</dim>
					<dim>1</dim>
					<dim>1</dim>
				</port>
			</input>
			<output>
				<port id="2" precision="FP32">
					<dim>48</dim>
					<dim>24</dim>
					<dim>3</dim>
					<dim>3</dim>
				</port>
			</output>
		</layer>
		<layer id="74" name="/backbone/stage1/stage1.0/conv/Conv/WithoutBiases" type="Convolution" version="opset1">
			<data strides="2, 2" dilations="1, 1" pads_begin="1, 1" pads_end="1, 1" auto_pad="explicit" />
			<input>
				<port id="0" precision="FP32">
					<dim>-1</dim>
					<dim>24</dim>
					<dim>208</dim>
					<dim>-1</dim>
				</port>
				<port id="1" precision="FP32">
					<dim>48</dim>
					<dim>24</dim>
					<dim>3</dim>
					<dim>3</dim>
				</port>
			</input>
			<output>
				<port id="2" precision="FP32">
					<dim>-1</dim>
					<dim>48</dim>
					<dim>104</dim>
					<dim>-1</dim>
				</port>
			</output>
		</layer>
		<layer id="75" name="Reshape_271_compressed" type="Const" version="opset1">
			<data element_type="f16" shape="1, 48, 1, 1" offset="13316" size="96" />
			<output>
				<port id="0" precision="FP16">
					<dim>1</dim>
					<dim>48</dim>
					<dim>1</dim>
					<dim>1</dim>
				</port>
			</output>
		</layer>
		<layer id="76" name="Reshape_271" type="Convert" version="opset1">
			<data destination_type="f32" />
			<rt_info>
				<attribute name="decompression" version="0" />
			</rt_info>
			<input>
				<port id="0" precision="FP16">
					<dim>1</dim>
					<dim>48</dim>
					<dim>1</dim>
					<dim>1</dim>
				</port>
			</input>
			<output>
				<port id="1" precision="FP32">
					<dim>1</dim>
					<dim>48</dim>
					<dim>1</dim>
					<dim>1</dim>
				</port>
			</output>
		</layer>
		<layer id="77" name="/backbone/stage1/stage1.0/conv/Conv" type="Add" version="opset1">
			<data auto_broadcast="numpy" />
			<input>
				<port id="0" precision="FP32">
					<dim>-1</dim>
					<dim>48</dim>
					<dim>104</dim>
					<dim>-1</dim>
				</port>
				<port id="1" precision="FP32">
					<dim>1</dim>
					<dim>48</dim>
					<dim>1</dim>
					<dim>1</dim>
				</port>
			</input>
			<output>
				<port id="2" precision="FP32" names="/backbone/stage1/stage1.0/conv/Conv_output_0">
					<dim>-1</dim>
					<dim>48</dim>
					<dim>104</dim>
					<dim>-1</dim>
				</port>
			</output>
		</layer>
		<layer id="78" name="/backbone/stage1/stage1.0/activate/Mul" type="Swish" version="opset4">
			<input>
				<port id="0" precision="FP32">
					<dim>-1</dim>
					<dim>48</dim>
					<dim>104</dim>
					<dim>-1</dim>
				</port>
			</input>
			<output>
				<port id="1" precision="FP32" names="/backbone/stage1/stage1.0/activate/Mul_output_0">
					<dim>-1</dim>
					<dim>48</dim>
					<dim>104</dim>
					<dim>-1</dim>
				</port>
			</output>
		</layer>
		<layer id="79" name="Constant_63937_compressed" type="Const" version="opset1">
			<data element_type="f16" shape="" offset="13412" size="2" />
			<output>
				<port id="0" precision="FP16" />
			</output>
		</layer>
		<layer id="80" name="Constant_63937" type="Convert" version="opset1">
			<data destination_type="f32" />
			<rt_info>
				<attribute name="decompression" version="0" />
			</rt_info>
			<input>
				<port id="0" precision="FP16" />
			</input>
			<output>
				<port id="1" precision="FP32" />
			</output>
		</layer>
		<layer id="81" name="Constant_63938_compressed" type="Const" version="opset1">
			<data element_type="f16" shape="" offset="13414" size="2" />
			<output>
				<port id="0" precision="FP16" />
			</output>
		</layer>
		<layer id="82" name="Constant_63938" type="Convert" version="opset1">
			<data destination_type="f32" />
			<rt_info>
				<attribute name="decompression" version="0" />
			</rt_info>
			<input>
				<port id="0" precision="FP16" />
			</input>
			<output>
				<port id="1" precision="FP32" />
			</output>
		</layer>
		<layer id="83" name="Constant_63939_compressed" type="Const" version="opset1">
			<data element_type="f16" shape="" offset="13412" size="2" />
			<output>
				<port id="0" precision="FP16" />
			</output>
		</layer>
		<layer id="84" name="Constant_63939" type="Convert" version="opset1">
			<data destination_type="f32" />
			<rt_info>
				<attribute name="decompression" version="0" />
			</rt_info>
			<input>
				<port id="0" precision="FP16" />
			</input>
			<output>
				<port id="1" precision="FP32" />
			</output>
		</layer>
		<layer id="85" name="Constant_63940_compressed" type="Const" version="opset1">
			<data element_type="f16" shape="" offset="13414" size="2" />
			<output>
				<port id="0" precision="FP16" />
			</output>
		</layer>
		<layer id="86" name="Constant_63940" type="Convert" version="opset1">
			<data destination_type="f32" />
			<rt_info>
				<attribute name="decompression" version="0" />
			</rt_info>
			<input>
				<port id="0" precision="FP16" />
			</input>
			<output>
				<port id="1" precision="FP32" />
			</output>
		</layer>
		<layer id="87" name="/backbone/stage1/stage1.0/activate/Mul/fq_output_0" type="FakeQuantize" version="opset1">
			<data levels="256" auto_broadcast="numpy" />
			<input>
				<port id="0" precision="FP32">
					<dim>-1</dim>
					<dim>48</dim>
					<dim>104</dim>
					<dim>-1</dim>
				</port>
				<port id="1" precision="FP32" />
				<port id="2" precision="FP32" />
				<port id="3" precision="FP32" />
				<port id="4" precision="FP32" />
			</input>
			<output>
				<port id="5" precision="FP32">
					<dim>-1</dim>
					<dim>48</dim>
					<dim>104</dim>
					<dim>-1</dim>
				</port>
			</output>
		</layer>
		<layer id="88" name="Constant_492511" type="Const" version="opset1">
			<data element_type="i8" shape="24, 48, 1, 1" offset="13416" size="1152" />
			<output>
				<port id="0" precision="I8">
					<dim>24</dim>
					<dim>48</dim>
					<dim>1</dim>
					<dim>1</dim>
				</port>
			</output>
		</layer>
		<layer id="89" name="Convert_492512" type="Convert" version="opset1">
			<data destination_type="f32" />
			<input>
				<port id="0" precision="I8">
					<dim>24</dim>
					<dim>48</dim>
					<dim>1</dim>
					<dim>1</dim>
				</port>
			</input>
			<output>
				<port id="1" precision="FP32">
					<dim>24</dim>
					<dim>48</dim>
					<dim>1</dim>
					<dim>1</dim>
				</port>
			</output>
		</layer>
		<layer id="90" name="Constant_492513_compressed" type="Const" version="opset1">
			<data element_type="f16" shape="24, 1, 1, 1" offset="14568" size="48" />
			<output>
				<port id="0" precision="FP16">
					<dim>24</dim>
					<dim>1</dim>
					<dim>1</dim>
					<dim>1</dim>
				</port>
			</output>
		</layer>
		<layer id="91" name="Constant_492513" type="Convert" version="opset1">
			<data destination_type="f32" />
			<rt_info>
				<attribute name="decompression" version="0" />
			</rt_info>
			<input>
				<port id="0" precision="FP16">
					<dim>24</dim>
					<dim>1</dim>
					<dim>1</dim>
					<dim>1</dim>
				</port>
			</input>
			<output>
				<port id="1" precision="FP32">
					<dim>24</dim>
					<dim>1</dim>
					<dim>1</dim>
					<dim>1</dim>
				</port>
			</output>
		</layer>
		<layer id="92" name="/backbone/stage1/stage1.1/main_conv/conv/Conv/WithoutBiases/fq_weights_1" type="Multiply" version="opset1">
			<data auto_broadcast="numpy" />
			<input>
				<port id="0" precision="FP32">
					<dim>24</dim>
					<dim>48</dim>
					<dim>1</dim>
					<dim>1</dim>
				</port>
				<port id="1" precision="FP32">
					<dim>24</dim>
					<dim>1</dim>
					<dim>1</dim>
					<dim>1</dim>
				</port>
			</input>
			<output>
				<port id="2" precision="FP32">
					<dim>24</dim>
					<dim>48</dim>
					<dim>1</dim>
					<dim>1</dim>
				</port>
			</output>
		</layer>
		<layer id="93" name="/backbone/stage1/stage1.1/main_conv/conv/Conv/WithoutBiases" type="Convolution" version="opset1">
			<data strides="1, 1" dilations="1, 1" pads_begin="0, 0" pads_end="0, 0" auto_pad="explicit" />
			<input>
				<port id="0" precision="FP32">
					<dim>-1</dim>
					<dim>48</dim>
					<dim>104</dim>
					<dim>-1</dim>
				</port>
				<port id="1" precision="FP32">
					<dim>24</dim>
					<dim>48</dim>
					<dim>1</dim>
					<dim>1</dim>
				</port>
			</input>
			<output>
				<port id="2" precision="FP32">
					<dim>-1</dim>
					<dim>24</dim>
					<dim>104</dim>
					<dim>-1</dim>
				</port>
			</output>
		</layer>
		<layer id="94" name="Reshape_307_compressed" type="Const" version="opset1">
			<data element_type="f16" shape="1, 24, 1, 1" offset="14616" size="48" />
			<output>
				<port id="0" precision="FP16">
					<dim>1</dim>
					<dim>24</dim>
					<dim>1</dim>
					<dim>1</dim>
				</port>
			</output>
		</layer>
		<layer id="95" name="Reshape_307" type="Convert" version="opset1">
			<data destination_type="f32" />
			<rt_info>
				<attribute name="decompression" version="0" />
			</rt_info>
			<input>
				<port id="0" precision="FP16">
					<dim>1</dim>
					<dim>24</dim>
					<dim>1</dim>
					<dim>1</dim>
				</port>
			</input>
			<output>
				<port id="1" precision="FP32">
					<dim>1</dim>
					<dim>24</dim>
					<dim>1</dim>
					<dim>1</dim>
				</port>
			</output>
		</layer>
		<layer id="96" name="/backbone/stage1/stage1.1/main_conv/conv/Conv" type="Add" version="opset1">
			<data auto_broadcast="numpy" />
			<input>
				<port id="0" precision="FP32">
					<dim>-1</dim>
					<dim>24</dim>
					<dim>104</dim>
					<dim>-1</dim>
				</port>
				<port id="1" precision="FP32">
					<dim>1</dim>
					<dim>24</dim>
					<dim>1</dim>
					<dim>1</dim>
				</port>
			</input>
			<output>
				<port id="2" precision="FP32" names="/backbone/stage1/stage1.1/main_conv/conv/Conv_output_0">
					<dim>-1</dim>
					<dim>24</dim>
					<dim>104</dim>
					<dim>-1</dim>
				</port>
			</output>
		</layer>
		<layer id="97" name="/backbone/stage1/stage1.1/main_conv/activate/Mul" type="Swish" version="opset4">
			<input>
				<port id="0" precision="FP32">
					<dim>-1</dim>
					<dim>24</dim>
					<dim>104</dim>
					<dim>-1</dim>
				</port>
			</input>
			<output>
				<port id="1" precision="FP32" names="/backbone/stage1/stage1.1/main_conv/activate/Mul_output_0">
					<dim>-1</dim>
					<dim>24</dim>
					<dim>104</dim>
					<dim>-1</dim>
				</port>
			</output>
		</layer>
		<layer id="98" name="Constant_63952_compressed" type="Const" version="opset1">
			<data element_type="f16" shape="" offset="14664" size="2" />
			<output>
				<port id="0" precision="FP16" />
			</output>
		</layer>
		<layer id="99" name="Constant_63952" type="Convert" version="opset1">
			<data destination_type="f32" />
			<rt_info>
				<attribute name="decompression" version="0" />
			</rt_info>
			<input>
				<port id="0" precision="FP16" />
			</input>
			<output>
				<port id="1" precision="FP32" />
			</output>
		</layer>
		<layer id="100" name="Constant_63953_compressed" type="Const" version="opset1">
			<data element_type="f16" shape="" offset="14666" size="2" />
			<output>
				<port id="0" precision="FP16" />
			</output>
		</layer>
		<layer id="101" name="Constant_63953" type="Convert" version="opset1">
			<data destination_type="f32" />
			<rt_info>
				<attribute name="decompression" version="0" />
			</rt_info>
			<input>
				<port id="0" precision="FP16" />
			</input>
			<output>
				<port id="1" precision="FP32" />
			</output>
		</layer>
		<layer id="102" name="Constant_63954_compressed" type="Const" version="opset1">
			<data element_type="f16" shape="" offset="14664" size="2" />
			<output>
				<port id="0" precision="FP16" />
			</output>
		</layer>
		<layer id="103" name="Constant_63954" type="Convert" version="opset1">
			<data destination_type="f32" />
			<rt_info>
				<attribute name="decompression" version="0" />
			</rt_info>
			<input>
				<port id="0" precision="FP16" />
			</input>
			<output>
				<port id="1" precision="FP32" />
			</output>
		</layer>
		<layer id="104" name="Constant_63955_compressed" type="Const" version="opset1">
			<data element_type="f16" shape="" offset="14666" size="2" />
			<output>
				<port id="0" precision="FP16" />
			</output>
		</layer>
		<layer id="105" name="Constant_63955" type="Convert" version="opset1">
			<data destination_type="f32" />
			<rt_info>
				<attribute name="decompression" version="0" />
			</rt_info>
			<input>
				<port id="0" precision="FP16" />
			</input>
			<output>
				<port id="1" precision="FP32" />
			</output>
		</layer>
		<layer id="106" name="/backbone/stage1/stage1.1/main_conv/activate/Mul/fq_output_0" type="FakeQuantize" version="opset1">
			<data levels="256" auto_broadcast="numpy" />
			<input>
				<port id="0" precision="FP32">
					<dim>-1</dim>
					<dim>24</dim>
					<dim>104</dim>
					<dim>-1</dim>
				</port>
				<port id="1" precision="FP32" />
				<port id="2" precision="FP32" />
				<port id="3" precision="FP32" />
				<port id="4" precision="FP32" />
			</input>
			<output>
				<port id="5" precision="FP32">
					<dim>-1</dim>
					<dim>24</dim>
					<dim>104</dim>
					<dim>-1</dim>
				</port>
			</output>
		</layer>
		<layer id="107" name="Constant_492515" type="Const" version="opset1">
			<data element_type="i8" shape="24, 24, 1, 1" offset="14668" size="576" />
			<output>
				<port id="0" precision="I8">
					<dim>24</dim>
					<dim>24</dim>
					<dim>1</dim>
					<dim>1</dim>
				</port>
			</output>
		</layer>
		<layer id="108" name="Convert_492516" type="Convert" version="opset1">
			<data destination_type="f32" />
			<input>
				<port id="0" precision="I8">
					<dim>24</dim>
					<dim>24</dim>
					<dim>1</dim>
					<dim>1</dim>
				</port>
			</input>
			<output>
				<port id="1" precision="FP32">
					<dim>24</dim>
					<dim>24</dim>
					<dim>1</dim>
					<dim>1</dim>
				</port>
			</output>
		</layer>
		<layer id="109" name="Constant_492517_compressed" type="Const" version="opset1">
			<data element_type="f16" shape="24, 1, 1, 1" offset="15244" size="48" />
			<output>
				<port id="0" precision="FP16">
					<dim>24</dim>
					<dim>1</dim>
					<dim>1</dim>
					<dim>1</dim>
				</port>
			</output>
		</layer>
		<layer id="110" name="Constant_492517" type="Convert" version="opset1">
			<data destination_type="f32" />
			<rt_info>
				<attribute name="decompression" version="0" />
			</rt_info>
			<input>
				<port id="0" precision="FP16">
					<dim>24</dim>
					<dim>1</dim>
					<dim>1</dim>
					<dim>1</dim>
				</port>
			</input>
			<output>
				<port id="1" precision="FP32">
					<dim>24</dim>
					<dim>1</dim>
					<dim>1</dim>
					<dim>1</dim>
				</port>
			</output>
		</layer>
		<layer id="111" name="/backbone/stage1/stage1.1/blocks/blocks.0/conv1/conv/Conv/WithoutBiases/fq_weights_1" type="Multiply" version="opset1">
			<data auto_broadcast="numpy" />
			<input>
				<port id="0" precision="FP32">
					<dim>24</dim>
					<dim>24</dim>
					<dim>1</dim>
					<dim>1</dim>
				</port>
				<port id="1" precision="FP32">
					<dim>24</dim>
					<dim>1</dim>
					<dim>1</dim>
					<dim>1</dim>
				</port>
			</input>
			<output>
				<port id="2" precision="FP32">
					<dim>24</dim>
					<dim>24</dim>
					<dim>1</dim>
					<dim>1</dim>
				</port>
			</output>
		</layer>
		<layer id="112" name="/backbone/stage1/stage1.1/blocks/blocks.0/conv1/conv/Conv/WithoutBiases" type="Convolution" version="opset1">
			<data strides="1, 1" dilations="1, 1" pads_begin="0, 0" pads_end="0, 0" auto_pad="explicit" />
			<input>
				<port id="0" precision="FP32">
					<dim>-1</dim>
					<dim>24</dim>
					<dim>104</dim>
					<dim>-1</dim>
				</port>
				<port id="1" precision="FP32">
					<dim>24</dim>
					<dim>24</dim>
					<dim>1</dim>
					<dim>1</dim>
				</port>
			</input>
			<output>
				<port id="2" precision="FP32">
					<dim>-1</dim>
					<dim>24</dim>
					<dim>104</dim>
					<dim>-1</dim>
				</port>
			</output>
		</layer>
		<layer id="113" name="Reshape_325_compressed" type="Const" version="opset1">
			<data element_type="f16" shape="1, 24, 1, 1" offset="15292" size="48" />
			<output>
				<port id="0" precision="FP16">
					<dim>1</dim>
					<dim>24</dim>
					<dim>1</dim>
					<dim>1</dim>
				</port>
			</output>
		</layer>
		<layer id="114" name="Reshape_325" type="Convert" version="opset1">
			<data destination_type="f32" />
			<rt_info>
				<attribute name="decompression" version="0" />
			</rt_info>
			<input>
				<port id="0" precision="FP16">
					<dim>1</dim>
					<dim>24</dim>
					<dim>1</dim>
					<dim>1</dim>
				</port>
			</input>
			<output>
				<port id="1" precision="FP32">
					<dim>1</dim>
					<dim>24</dim>
					<dim>1</dim>
					<dim>1</dim>
				</port>
			</output>
		</layer>
		<layer id="115" name="/backbone/stage1/stage1.1/blocks/blocks.0/conv1/conv/Conv" type="Add" version="opset1">
			<data auto_broadcast="numpy" />
			<input>
				<port id="0" precision="FP32">
					<dim>-1</dim>
					<dim>24</dim>
					<dim>104</dim>
					<dim>-1</dim>
				</port>
				<port id="1" precision="FP32">
					<dim>1</dim>
					<dim>24</dim>
					<dim>1</dim>
					<dim>1</dim>
				</port>
			</input>
			<output>
				<port id="2" precision="FP32" names="/backbone/stage1/stage1.1/blocks/blocks.0/conv1/conv/Conv_output_0">
					<dim>-1</dim>
					<dim>24</dim>
					<dim>104</dim>
					<dim>-1</dim>
				</port>
			</output>
		</layer>
		<layer id="116" name="/backbone/stage1/stage1.1/blocks/blocks.0/conv1/activate/Mul" type="Swish" version="opset4">
			<input>
				<port id="0" precision="FP32">
					<dim>-1</dim>
					<dim>24</dim>
					<dim>104</dim>
					<dim>-1</dim>
				</port>
			</input>
			<output>
				<port id="1" precision="FP32" names="/backbone/stage1/stage1.1/blocks/blocks.0/conv1/activate/Mul_output_0">
					<dim>-1</dim>
					<dim>24</dim>
					<dim>104</dim>
					<dim>-1</dim>
				</port>
			</output>
		</layer>
		<layer id="117" name="Constant_63962_compressed" type="Const" version="opset1">
			<data element_type="f16" shape="" offset="15340" size="2" />
			<output>
				<port id="0" precision="FP16" />
			</output>
		</layer>
		<layer id="118" name="Constant_63962" type="Convert" version="opset1">
			<data destination_type="f32" />
			<rt_info>
				<attribute name="decompression" version="0" />
			</rt_info>
			<input>
				<port id="0" precision="FP16" />
			</input>
			<output>
				<port id="1" precision="FP32" />
			</output>
		</layer>
		<layer id="119" name="Constant_63963_compressed" type="Const" version="opset1">
			<data element_type="f16" shape="" offset="15342" size="2" />
			<output>
				<port id="0" precision="FP16" />
			</output>
		</layer>
		<layer id="120" name="Constant_63963" type="Convert" version="opset1">
			<data destination_type="f32" />
			<rt_info>
				<attribute name="decompression" version="0" />
			</rt_info>
			<input>
				<port id="0" precision="FP16" />
			</input>
			<output>
				<port id="1" precision="FP32" />
			</output>
		</layer>
		<layer id="121" name="Constant_63964_compressed" type="Const" version="opset1">
			<data element_type="f16" shape="" offset="15340" size="2" />
			<output>
				<port id="0" precision="FP16" />
			</output>
		</layer>
		<layer id="122" name="Constant_63964" type="Convert" version="opset1">
			<data destination_type="f32" />
			<rt_info>
				<attribute name="decompression" version="0" />
			</rt_info>
			<input>
				<port id="0" precision="FP16" />
			</input>
			<output>
				<port id="1" precision="FP32" />
			</output>
		</layer>
		<layer id="123" name="Constant_63965_compressed" type="Const" version="opset1">
			<data element_type="f16" shape="" offset="15342" size="2" />
			<output>
				<port id="0" precision="FP16" />
			</output>
		</layer>
		<layer id="124" name="Constant_63965" type="Convert" version="opset1">
			<data destination_type="f32" />
			<rt_info>
				<attribute name="decompression" version="0" />
			</rt_info>
			<input>
				<port id="0" precision="FP16" />
			</input>
			<output>
				<port id="1" precision="FP32" />
			</output>
		</layer>
		<layer id="125" name="/backbone/stage1/stage1.1/blocks/blocks.0/conv1/activate/Mul/fq_output_0" type="FakeQuantize" version="opset1">
			<data levels="256" auto_broadcast="numpy" />
			<input>
				<port id="0" precision="FP32">
					<dim>-1</dim>
					<dim>24</dim>
					<dim>104</dim>
					<dim>-1</dim>
				</port>
				<port id="1" precision="FP32" />
				<port id="2" precision="FP32" />
				<port id="3" precision="FP32" />
				<port id="4" precision="FP32" />
			</input>
			<output>
				<port id="5" precision="FP32">
					<dim>-1</dim>
					<dim>24</dim>
					<dim>104</dim>
					<dim>-1</dim>
				</port>
			</output>
		</layer>
		<layer id="126" name="Constant_492519" type="Const" version="opset1">
			<data element_type="i8" shape="24, 24, 3, 3" offset="15344" size="5184" />
			<output>
				<port id="0" precision="I8">
					<dim>24</dim>
					<dim>24</dim>
					<dim>3</dim>
					<dim>3</dim>
				</port>
			</output>
		</layer>
		<layer id="127" name="Convert_492520" type="Convert" version="opset1">
			<data destination_type="f32" />
			<input>
				<port id="0" precision="I8">
					<dim>24</dim>
					<dim>24</dim>
					<dim>3</dim>
					<dim>3</dim>
				</port>
			</input>
			<output>
				<port id="1" precision="FP32">
					<dim>24</dim>
					<dim>24</dim>
					<dim>3</dim>
					<dim>3</dim>
				</port>
			</output>
		</layer>
		<layer id="128" name="Constant_492521_compressed" type="Const" version="opset1">
			<data element_type="f16" shape="24, 1, 1, 1" offset="20528" size="48" />
			<output>
				<port id="0" precision="FP16">
					<dim>24</dim>
					<dim>1</dim>
					<dim>1</dim>
					<dim>1</dim>
				</port>
			</output>
		</layer>
		<layer id="129" name="Constant_492521" type="Convert" version="opset1">
			<data destination_type="f32" />
			<rt_info>
				<attribute name="decompression" version="0" />
			</rt_info>
			<input>
				<port id="0" precision="FP16">
					<dim>24</dim>
					<dim>1</dim>
					<dim>1</dim>
					<dim>1</dim>
				</port>
			</input>
			<output>
				<port id="1" precision="FP32">
					<dim>24</dim>
					<dim>1</dim>
					<dim>1</dim>
					<dim>1</dim>
				</port>
			</output>
		</layer>
		<layer id="130" name="/backbone/stage1/stage1.1/blocks/blocks.0/conv2/conv/Conv/WithoutBiases/fq_weights_1" type="Multiply" version="opset1">
			<data auto_broadcast="numpy" />
			<input>
				<port id="0" precision="FP32">
					<dim>24</dim>
					<dim>24</dim>
					<dim>3</dim>
					<dim>3</dim>
				</port>
				<port id="1" precision="FP32">
					<dim>24</dim>
					<dim>1</dim>
					<dim>1</dim>
					<dim>1</dim>
				</port>
			</input>
			<output>
				<port id="2" precision="FP32">
					<dim>24</dim>
					<dim>24</dim>
					<dim>3</dim>
					<dim>3</dim>
				</port>
			</output>
		</layer>
		<layer id="131" name="/backbone/stage1/stage1.1/blocks/blocks.0/conv2/conv/Conv/WithoutBiases" type="Convolution" version="opset1">
			<data strides="1, 1" dilations="1, 1" pads_begin="1, 1" pads_end="1, 1" auto_pad="explicit" />
			<input>
				<port id="0" precision="FP32">
					<dim>-1</dim>
					<dim>24</dim>
					<dim>104</dim>
					<dim>-1</dim>
				</port>
				<port id="1" precision="FP32">
					<dim>24</dim>
					<dim>24</dim>
					<dim>3</dim>
					<dim>3</dim>
				</port>
			</input>
			<output>
				<port id="2" precision="FP32">
					<dim>-1</dim>
					<dim>24</dim>
					<dim>104</dim>
					<dim>-1</dim>
				</port>
			</output>
		</layer>
		<layer id="132" name="Reshape_343_compressed" type="Const" version="opset1">
			<data element_type="f16" shape="1, 24, 1, 1" offset="20576" size="48" />
			<output>
				<port id="0" precision="FP16">
					<dim>1</dim>
					<dim>24</dim>
					<dim>1</dim>
					<dim>1</dim>
				</port>
			</output>
		</layer>
		<layer id="133" name="Reshape_343" type="Convert" version="opset1">
			<data destination_type="f32" />
			<rt_info>
				<attribute name="decompression" version="0" />
			</rt_info>
			<input>
				<port id="0" precision="FP16">
					<dim>1</dim>
					<dim>24</dim>
					<dim>1</dim>
					<dim>1</dim>
				</port>
			</input>
			<output>
				<port id="1" precision="FP32">
					<dim>1</dim>
					<dim>24</dim>
					<dim>1</dim>
					<dim>1</dim>
				</port>
			</output>
		</layer>
		<layer id="134" name="/backbone/stage1/stage1.1/blocks/blocks.0/conv2/conv/Conv" type="Add" version="opset1">
			<data auto_broadcast="numpy" />
			<input>
				<port id="0" precision="FP32">
					<dim>-1</dim>
					<dim>24</dim>
					<dim>104</dim>
					<dim>-1</dim>
				</port>
				<port id="1" precision="FP32">
					<dim>1</dim>
					<dim>24</dim>
					<dim>1</dim>
					<dim>1</dim>
				</port>
			</input>
			<output>
				<port id="2" precision="FP32" names="/backbone/stage1/stage1.1/blocks/blocks.0/conv2/conv/Conv_output_0">
					<dim>-1</dim>
					<dim>24</dim>
					<dim>104</dim>
					<dim>-1</dim>
				</port>
			</output>
		</layer>
		<layer id="135" name="/backbone/stage1/stage1.1/blocks/blocks.0/conv2/activate/Mul" type="Swish" version="opset4">
			<input>
				<port id="0" precision="FP32">
					<dim>-1</dim>
					<dim>24</dim>
					<dim>104</dim>
					<dim>-1</dim>
				</port>
			</input>
			<output>
				<port id="1" precision="FP32" names="/backbone/stage1/stage1.1/blocks/blocks.0/conv2/activate/Mul_output_0">
					<dim>-1</dim>
					<dim>24</dim>
					<dim>104</dim>
					<dim>-1</dim>
				</port>
			</output>
		</layer>
		<layer id="136" name="Constant_63972_compressed" type="Const" version="opset1">
			<data element_type="f16" shape="" offset="20624" size="2" />
			<output>
				<port id="0" precision="FP16" />
			</output>
		</layer>
		<layer id="137" name="Constant_63972" type="Convert" version="opset1">
			<data destination_type="f32" />
			<rt_info>
				<attribute name="decompression" version="0" />
			</rt_info>
			<input>
				<port id="0" precision="FP16" />
			</input>
			<output>
				<port id="1" precision="FP32" />
			</output>
		</layer>
		<layer id="138" name="Constant_63973_compressed" type="Const" version="opset1">
			<data element_type="f16" shape="" offset="20626" size="2" />
			<output>
				<port id="0" precision="FP16" />
			</output>
		</layer>
		<layer id="139" name="Constant_63973" type="Convert" version="opset1">
			<data destination_type="f32" />
			<rt_info>
				<attribute name="decompression" version="0" />
			</rt_info>
			<input>
				<port id="0" precision="FP16" />
			</input>
			<output>
				<port id="1" precision="FP32" />
			</output>
		</layer>
		<layer id="140" name="Constant_63974_compressed" type="Const" version="opset1">
			<data element_type="f16" shape="" offset="20624" size="2" />
			<output>
				<port id="0" precision="FP16" />
			</output>
		</layer>
		<layer id="141" name="Constant_63974" type="Convert" version="opset1">
			<data destination_type="f32" />
			<rt_info>
				<attribute name="decompression" version="0" />
			</rt_info>
			<input>
				<port id="0" precision="FP16" />
			</input>
			<output>
				<port id="1" precision="FP32" />
			</output>
		</layer>
		<layer id="142" name="Constant_63975_compressed" type="Const" version="opset1">
			<data element_type="f16" shape="" offset="20626" size="2" />
			<output>
				<port id="0" precision="FP16" />
			</output>
		</layer>
		<layer id="143" name="Constant_63975" type="Convert" version="opset1">
			<data destination_type="f32" />
			<rt_info>
				<attribute name="decompression" version="0" />
			</rt_info>
			<input>
				<port id="0" precision="FP16" />
			</input>
			<output>
				<port id="1" precision="FP32" />
			</output>
		</layer>
		<layer id="144" name="/backbone/stage1/stage1.1/blocks/blocks.0/conv2/activate/Mul/fq_output_0" type="FakeQuantize" version="opset1">
			<data levels="256" auto_broadcast="numpy" />
			<input>
				<port id="0" precision="FP32">
					<dim>-1</dim>
					<dim>24</dim>
					<dim>104</dim>
					<dim>-1</dim>
				</port>
				<port id="1" precision="FP32" />
				<port id="2" precision="FP32" />
				<port id="3" precision="FP32" />
				<port id="4" precision="FP32" />
			</input>
			<output>
				<port id="5" precision="FP32">
					<dim>-1</dim>
					<dim>24</dim>
					<dim>104</dim>
					<dim>-1</dim>
				</port>
			</output>
		</layer>
		<layer id="145" name="/backbone/stage1/stage1.1/blocks/blocks.0/Add" type="Add" version="opset1">
			<data auto_broadcast="numpy" />
			<input>
				<port id="0" precision="FP32">
					<dim>-1</dim>
					<dim>24</dim>
					<dim>104</dim>
					<dim>-1</dim>
				</port>
				<port id="1" precision="FP32">
					<dim>-1</dim>
					<dim>24</dim>
					<dim>104</dim>
					<dim>-1</dim>
				</port>
			</input>
			<output>
				<port id="2" precision="FP32" names="/backbone/stage1/stage1.1/blocks/blocks.0/Add_output_0">
					<dim>-1</dim>
					<dim>24</dim>
					<dim>104</dim>
					<dim>-1</dim>
				</port>
			</output>
		</layer>
		<layer id="146" name="Constant_63792_compressed" type="Const" version="opset1">
			<data element_type="f16" shape="" offset="20628" size="2" />
			<output>
				<port id="0" precision="FP16" />
			</output>
		</layer>
		<layer id="147" name="Constant_63792" type="Convert" version="opset1">
			<data destination_type="f32" />
			<rt_info>
				<attribute name="decompression" version="0" />
			</rt_info>
			<input>
				<port id="0" precision="FP16" />
			</input>
			<output>
				<port id="1" precision="FP32" />
			</output>
		</layer>
		<layer id="148" name="Constant_63793_compressed" type="Const" version="opset1">
			<data element_type="f16" shape="" offset="20630" size="2" />
			<output>
				<port id="0" precision="FP16" />
			</output>
		</layer>
		<layer id="149" name="Constant_63793" type="Convert" version="opset1">
			<data destination_type="f32" />
			<rt_info>
				<attribute name="decompression" version="0" />
			</rt_info>
			<input>
				<port id="0" precision="FP16" />
			</input>
			<output>
				<port id="1" precision="FP32" />
			</output>
		</layer>
		<layer id="150" name="Constant_63794_compressed" type="Const" version="opset1">
			<data element_type="f16" shape="" offset="20628" size="2" />
			<output>
				<port id="0" precision="FP16" />
			</output>
		</layer>
		<layer id="151" name="Constant_63794" type="Convert" version="opset1">
			<data destination_type="f32" />
			<rt_info>
				<attribute name="decompression" version="0" />
			</rt_info>
			<input>
				<port id="0" precision="FP16" />
			</input>
			<output>
				<port id="1" precision="FP32" />
			</output>
		</layer>
		<layer id="152" name="Constant_63795_compressed" type="Const" version="opset1">
			<data element_type="f16" shape="" offset="20630" size="2" />
			<output>
				<port id="0" precision="FP16" />
			</output>
		</layer>
		<layer id="153" name="Constant_63795" type="Convert" version="opset1">
			<data destination_type="f32" />
			<rt_info>
				<attribute name="decompression" version="0" />
			</rt_info>
			<input>
				<port id="0" precision="FP16" />
			</input>
			<output>
				<port id="1" precision="FP32" />
			</output>
		</layer>
		<layer id="154" name="/backbone/stage1/stage1.1/blocks/blocks.0/Add/fq_output_0" type="FakeQuantize" version="opset1">
			<data levels="256" auto_broadcast="numpy" />
			<input>
				<port id="0" precision="FP32">
					<dim>-1</dim>
					<dim>24</dim>
					<dim>104</dim>
					<dim>-1</dim>
				</port>
				<port id="1" precision="FP32" />
				<port id="2" precision="FP32" />
				<port id="3" precision="FP32" />
				<port id="4" precision="FP32" />
			</input>
			<output>
				<port id="5" precision="FP32">
					<dim>-1</dim>
					<dim>24</dim>
					<dim>104</dim>
					<dim>-1</dim>
				</port>
			</output>
		</layer>
		<layer id="155" name="Constant_492523" type="Const" version="opset1">
			<data element_type="i8" shape="24, 48, 1, 1" offset="20632" size="1152" />
			<output>
				<port id="0" precision="I8">
					<dim>24</dim>
					<dim>48</dim>
					<dim>1</dim>
					<dim>1</dim>
				</port>
			</output>
		</layer>
		<layer id="156" name="Convert_492524" type="Convert" version="opset1">
			<data destination_type="f32" />
			<input>
				<port id="0" precision="I8">
					<dim>24</dim>
					<dim>48</dim>
					<dim>1</dim>
					<dim>1</dim>
				</port>
			</input>
			<output>
				<port id="1" precision="FP32">
					<dim>24</dim>
					<dim>48</dim>
					<dim>1</dim>
					<dim>1</dim>
				</port>
			</output>
		</layer>
		<layer id="157" name="Constant_492525_compressed" type="Const" version="opset1">
			<data element_type="f16" shape="24, 1, 1, 1" offset="21784" size="48" />
			<output>
				<port id="0" precision="FP16">
					<dim>24</dim>
					<dim>1</dim>
					<dim>1</dim>
					<dim>1</dim>
				</port>
			</output>
		</layer>
		<layer id="158" name="Constant_492525" type="Convert" version="opset1">
			<data destination_type="f32" />
			<rt_info>
				<attribute name="decompression" version="0" />
			</rt_info>
			<input>
				<port id="0" precision="FP16">
					<dim>24</dim>
					<dim>1</dim>
					<dim>1</dim>
					<dim>1</dim>
				</port>
			</input>
			<output>
				<port id="1" precision="FP32">
					<dim>24</dim>
					<dim>1</dim>
					<dim>1</dim>
					<dim>1</dim>
				</port>
			</output>
		</layer>
		<layer id="159" name="/backbone/stage1/stage1.1/short_conv/conv/Conv/WithoutBiases/fq_weights_1" type="Multiply" version="opset1">
			<data auto_broadcast="numpy" />
			<input>
				<port id="0" precision="FP32">
					<dim>24</dim>
					<dim>48</dim>
					<dim>1</dim>
					<dim>1</dim>
				</port>
				<port id="1" precision="FP32">
					<dim>24</dim>
					<dim>1</dim>
					<dim>1</dim>
					<dim>1</dim>
				</port>
			</input>
			<output>
				<port id="2" precision="FP32">
					<dim>24</dim>
					<dim>48</dim>
					<dim>1</dim>
					<dim>1</dim>
				</port>
			</output>
		</layer>
		<layer id="160" name="/backbone/stage1/stage1.1/short_conv/conv/Conv/WithoutBiases" type="Convolution" version="opset1">
			<data strides="1, 1" dilations="1, 1" pads_begin="0, 0" pads_end="0, 0" auto_pad="explicit" />
			<input>
				<port id="0" precision="FP32">
					<dim>-1</dim>
					<dim>48</dim>
					<dim>104</dim>
					<dim>-1</dim>
				</port>
				<port id="1" precision="FP32">
					<dim>24</dim>
					<dim>48</dim>
					<dim>1</dim>
					<dim>1</dim>
				</port>
			</input>
			<output>
				<port id="2" precision="FP32">
					<dim>-1</dim>
					<dim>24</dim>
					<dim>104</dim>
					<dim>-1</dim>
				</port>
			</output>
		</layer>
		<layer id="161" name="Reshape_289_compressed" type="Const" version="opset1">
			<data element_type="f16" shape="1, 24, 1, 1" offset="21832" size="48" />
			<output>
				<port id="0" precision="FP16">
					<dim>1</dim>
					<dim>24</dim>
					<dim>1</dim>
					<dim>1</dim>
				</port>
			</output>
		</layer>
		<layer id="162" name="Reshape_289" type="Convert" version="opset1">
			<data destination_type="f32" />
			<rt_info>
				<attribute name="decompression" version="0" />
			</rt_info>
			<input>
				<port id="0" precision="FP16">
					<dim>1</dim>
					<dim>24</dim>
					<dim>1</dim>
					<dim>1</dim>
				</port>
			</input>
			<output>
				<port id="1" precision="FP32">
					<dim>1</dim>
					<dim>24</dim>
					<dim>1</dim>
					<dim>1</dim>
				</port>
			</output>
		</layer>
		<layer id="163" name="/backbone/stage1/stage1.1/short_conv/conv/Conv" type="Add" version="opset1">
			<data auto_broadcast="numpy" />
			<input>
				<port id="0" precision="FP32">
					<dim>-1</dim>
					<dim>24</dim>
					<dim>104</dim>
					<dim>-1</dim>
				</port>
				<port id="1" precision="FP32">
					<dim>1</dim>
					<dim>24</dim>
					<dim>1</dim>
					<dim>1</dim>
				</port>
			</input>
			<output>
				<port id="2" precision="FP32" names="/backbone/stage1/stage1.1/short_conv/conv/Conv_output_0">
					<dim>-1</dim>
					<dim>24</dim>
					<dim>104</dim>
					<dim>-1</dim>
				</port>
			</output>
		</layer>
		<layer id="164" name="/backbone/stage1/stage1.1/short_conv/activate/Mul" type="Swish" version="opset4">
			<input>
				<port id="0" precision="FP32">
					<dim>-1</dim>
					<dim>24</dim>
					<dim>104</dim>
					<dim>-1</dim>
				</port>
			</input>
			<output>
				<port id="1" precision="FP32" names="/backbone/stage1/stage1.1/short_conv/activate/Mul_output_0">
					<dim>-1</dim>
					<dim>24</dim>
					<dim>104</dim>
					<dim>-1</dim>
				</port>
			</output>
		</layer>
		<layer id="165" name="Constant_63797_compressed" type="Const" version="opset1">
			<data element_type="f16" shape="" offset="20628" size="2" />
			<output>
				<port id="0" precision="FP16" />
			</output>
		</layer>
		<layer id="166" name="Constant_63797" type="Convert" version="opset1">
			<data destination_type="f32" />
			<rt_info>
				<attribute name="decompression" version="0" />
			</rt_info>
			<input>
				<port id="0" precision="FP16" />
			</input>
			<output>
				<port id="1" precision="FP32" />
			</output>
		</layer>
		<layer id="167" name="Constant_63798_compressed" type="Const" version="opset1">
			<data element_type="f16" shape="" offset="20630" size="2" />
			<output>
				<port id="0" precision="FP16" />
			</output>
		</layer>
		<layer id="168" name="Constant_63798" type="Convert" version="opset1">
			<data destination_type="f32" />
			<rt_info>
				<attribute name="decompression" version="0" />
			</rt_info>
			<input>
				<port id="0" precision="FP16" />
			</input>
			<output>
				<port id="1" precision="FP32" />
			</output>
		</layer>
		<layer id="169" name="Constant_63799_compressed" type="Const" version="opset1">
			<data element_type="f16" shape="" offset="20628" size="2" />
			<output>
				<port id="0" precision="FP16" />
			</output>
		</layer>
		<layer id="170" name="Constant_63799" type="Convert" version="opset1">
			<data destination_type="f32" />
			<rt_info>
				<attribute name="decompression" version="0" />
			</rt_info>
			<input>
				<port id="0" precision="FP16" />
			</input>
			<output>
				<port id="1" precision="FP32" />
			</output>
		</layer>
		<layer id="171" name="Constant_63800_compressed" type="Const" version="opset1">
			<data element_type="f16" shape="" offset="20630" size="2" />
			<output>
				<port id="0" precision="FP16" />
			</output>
		</layer>
		<layer id="172" name="Constant_63800" type="Convert" version="opset1">
			<data destination_type="f32" />
			<rt_info>
				<attribute name="decompression" version="0" />
			</rt_info>
			<input>
				<port id="0" precision="FP16" />
			</input>
			<output>
				<port id="1" precision="FP32" />
			</output>
		</layer>
		<layer id="173" name="/backbone/stage1/stage1.1/short_conv/activate/Mul/fq_output_0" type="FakeQuantize" version="opset1">
			<data levels="256" auto_broadcast="numpy" />
			<input>
				<port id="0" precision="FP32">
					<dim>-1</dim>
					<dim>24</dim>
					<dim>104</dim>
					<dim>-1</dim>
				</port>
				<port id="1" precision="FP32" />
				<port id="2" precision="FP32" />
				<port id="3" precision="FP32" />
				<port id="4" precision="FP32" />
			</input>
			<output>
				<port id="5" precision="FP32">
					<dim>-1</dim>
					<dim>24</dim>
					<dim>104</dim>
					<dim>-1</dim>
				</port>
			</output>
		</layer>
		<layer id="174" name="/backbone/stage1/stage1.1/Concat" type="Concat" version="opset1">
			<data axis="1" />
			<input>
				<port id="0" precision="FP32">
					<dim>-1</dim>
					<dim>24</dim>
					<dim>104</dim>
					<dim>-1</dim>
				</port>
				<port id="1" precision="FP32">
					<dim>-1</dim>
					<dim>24</dim>
					<dim>104</dim>
					<dim>-1</dim>
				</port>
			</input>
			<output>
				<port id="2" precision="FP32" names="/backbone/stage1/stage1.1/Concat_output_0">
					<dim>-1</dim>
					<dim>48</dim>
					<dim>104</dim>
					<dim>-1</dim>
				</port>
			</output>
		</layer>
		<layer id="175" name="Constant_492527" type="Const" version="opset1">
			<data element_type="i8" shape="48, 48, 1, 1" offset="21880" size="2304" />
			<output>
				<port id="0" precision="I8">
					<dim>48</dim>
					<dim>48</dim>
					<dim>1</dim>
					<dim>1</dim>
				</port>
			</output>
		</layer>
		<layer id="176" name="Convert_492528" type="Convert" version="opset1">
			<data destination_type="f32" />
			<input>
				<port id="0" precision="I8">
					<dim>48</dim>
					<dim>48</dim>
					<dim>1</dim>
					<dim>1</dim>
				</port>
			</input>
			<output>
				<port id="1" precision="FP32">
					<dim>48</dim>
					<dim>48</dim>
					<dim>1</dim>
					<dim>1</dim>
				</port>
			</output>
		</layer>
		<layer id="177" name="Constant_492529_compressed" type="Const" version="opset1">
			<data element_type="f16" shape="48, 1, 1, 1" offset="24184" size="96" />
			<output>
				<port id="0" precision="FP16">
					<dim>48</dim>
					<dim>1</dim>
					<dim>1</dim>
					<dim>1</dim>
				</port>
			</output>
		</layer>
		<layer id="178" name="Constant_492529" type="Convert" version="opset1">
			<data destination_type="f32" />
			<rt_info>
				<attribute name="decompression" version="0" />
			</rt_info>
			<input>
				<port id="0" precision="FP16">
					<dim>48</dim>
					<dim>1</dim>
					<dim>1</dim>
					<dim>1</dim>
				</port>
			</input>
			<output>
				<port id="1" precision="FP32">
					<dim>48</dim>
					<dim>1</dim>
					<dim>1</dim>
					<dim>1</dim>
				</port>
			</output>
		</layer>
		<layer id="179" name="/backbone/stage1/stage1.1/final_conv/conv/Conv/WithoutBiases/fq_weights_1" type="Multiply" version="opset1">
			<data auto_broadcast="numpy" />
			<input>
				<port id="0" precision="FP32">
					<dim>48</dim>
					<dim>48</dim>
					<dim>1</dim>
					<dim>1</dim>
				</port>
				<port id="1" precision="FP32">
					<dim>48</dim>
					<dim>1</dim>
					<dim>1</dim>
					<dim>1</dim>
				</port>
			</input>
			<output>
				<port id="2" precision="FP32">
					<dim>48</dim>
					<dim>48</dim>
					<dim>1</dim>
					<dim>1</dim>
				</port>
			</output>
		</layer>
		<layer id="180" name="/backbone/stage1/stage1.1/final_conv/conv/Conv/WithoutBiases" type="Convolution" version="opset1">
			<data strides="1, 1" dilations="1, 1" pads_begin="0, 0" pads_end="0, 0" auto_pad="explicit" />
			<input>
				<port id="0" precision="FP32">
					<dim>-1</dim>
					<dim>48</dim>
					<dim>104</dim>
					<dim>-1</dim>
				</port>
				<port id="1" precision="FP32">
					<dim>48</dim>
					<dim>48</dim>
					<dim>1</dim>
					<dim>1</dim>
				</port>
			</input>
			<output>
				<port id="2" precision="FP32">
					<dim>-1</dim>
					<dim>48</dim>
					<dim>104</dim>
					<dim>-1</dim>
				</port>
			</output>
		</layer>
		<layer id="181" name="Reshape_363_compressed" type="Const" version="opset1">
			<data element_type="f16" shape="1, 48, 1, 1" offset="24280" size="96" />
			<output>
				<port id="0" precision="FP16">
					<dim>1</dim>
					<dim>48</dim>
					<dim>1</dim>
					<dim>1</dim>
				</port>
			</output>
		</layer>
		<layer id="182" name="Reshape_363" type="Convert" version="opset1">
			<data destination_type="f32" />
			<rt_info>
				<attribute name="decompression" version="0" />
			</rt_info>
			<input>
				<port id="0" precision="FP16">
					<dim>1</dim>
					<dim>48</dim>
					<dim>1</dim>
					<dim>1</dim>
				</port>
			</input>
			<output>
				<port id="1" precision="FP32">
					<dim>1</dim>
					<dim>48</dim>
					<dim>1</dim>
					<dim>1</dim>
				</port>
			</output>
		</layer>
		<layer id="183" name="/backbone/stage1/stage1.1/final_conv/conv/Conv" type="Add" version="opset1">
			<data auto_broadcast="numpy" />
			<input>
				<port id="0" precision="FP32">
					<dim>-1</dim>
					<dim>48</dim>
					<dim>104</dim>
					<dim>-1</dim>
				</port>
				<port id="1" precision="FP32">
					<dim>1</dim>
					<dim>48</dim>
					<dim>1</dim>
					<dim>1</dim>
				</port>
			</input>
			<output>
				<port id="2" precision="FP32" names="/backbone/stage1/stage1.1/final_conv/conv/Conv_output_0">
					<dim>-1</dim>
					<dim>48</dim>
					<dim>104</dim>
					<dim>-1</dim>
				</port>
			</output>
		</layer>
		<layer id="184" name="/backbone/stage1/stage1.1/final_conv/activate/Mul" type="Swish" version="opset4">
			<input>
				<port id="0" precision="FP32">
					<dim>-1</dim>
					<dim>48</dim>
					<dim>104</dim>
					<dim>-1</dim>
				</port>
			</input>
			<output>
				<port id="1" precision="FP32" names="/backbone/stage1/stage1.1/final_conv/activate/Mul_output_0">
					<dim>-1</dim>
					<dim>48</dim>
					<dim>104</dim>
					<dim>-1</dim>
				</port>
			</output>
		</layer>
		<layer id="185" name="Constant_63982_compressed" type="Const" version="opset1">
			<data element_type="f16" shape="" offset="24376" size="2" />
			<output>
				<port id="0" precision="FP16" />
			</output>
		</layer>
		<layer id="186" name="Constant_63982" type="Convert" version="opset1">
			<data destination_type="f32" />
			<rt_info>
				<attribute name="decompression" version="0" />
			</rt_info>
			<input>
				<port id="0" precision="FP16" />
			</input>
			<output>
				<port id="1" precision="FP32" />
			</output>
		</layer>
		<layer id="187" name="Constant_63983_compressed" type="Const" version="opset1">
			<data element_type="f16" shape="" offset="24378" size="2" />
			<output>
				<port id="0" precision="FP16" />
			</output>
		</layer>
		<layer id="188" name="Constant_63983" type="Convert" version="opset1">
			<data destination_type="f32" />
			<rt_info>
				<attribute name="decompression" version="0" />
			</rt_info>
			<input>
				<port id="0" precision="FP16" />
			</input>
			<output>
				<port id="1" precision="FP32" />
			</output>
		</layer>
		<layer id="189" name="Constant_63984_compressed" type="Const" version="opset1">
			<data element_type="f16" shape="" offset="24376" size="2" />
			<output>
				<port id="0" precision="FP16" />
			</output>
		</layer>
		<layer id="190" name="Constant_63984" type="Convert" version="opset1">
			<data destination_type="f32" />
			<rt_info>
				<attribute name="decompression" version="0" />
			</rt_info>
			<input>
				<port id="0" precision="FP16" />
			</input>
			<output>
				<port id="1" precision="FP32" />
			</output>
		</layer>
		<layer id="191" name="Constant_63985_compressed" type="Const" version="opset1">
			<data element_type="f16" shape="" offset="24378" size="2" />
			<output>
				<port id="0" precision="FP16" />
			</output>
		</layer>
		<layer id="192" name="Constant_63985" type="Convert" version="opset1">
			<data destination_type="f32" />
			<rt_info>
				<attribute name="decompression" version="0" />
			</rt_info>
			<input>
				<port id="0" precision="FP16" />
			</input>
			<output>
				<port id="1" precision="FP32" />
			</output>
		</layer>
		<layer id="193" name="/backbone/stage1/stage1.1/final_conv/activate/Mul/fq_output_0" type="FakeQuantize" version="opset1">
			<data levels="256" auto_broadcast="numpy" />
			<input>
				<port id="0" precision="FP32">
					<dim>-1</dim>
					<dim>48</dim>
					<dim>104</dim>
					<dim>-1</dim>
				</port>
				<port id="1" precision="FP32" />
				<port id="2" precision="FP32" />
				<port id="3" precision="FP32" />
				<port id="4" precision="FP32" />
			</input>
			<output>
				<port id="5" precision="FP32">
					<dim>-1</dim>
					<dim>48</dim>
					<dim>104</dim>
					<dim>-1</dim>
				</port>
			</output>
		</layer>
		<layer id="194" name="Constant_492531" type="Const" version="opset1">
			<data element_type="i8" shape="96, 48, 3, 3" offset="24380" size="41472" />
			<output>
				<port id="0" precision="I8">
					<dim>96</dim>
					<dim>48</dim>
					<dim>3</dim>
					<dim>3</dim>
				</port>
			</output>
		</layer>
		<layer id="195" name="Convert_492532" type="Convert" version="opset1">
			<data destination_type="f32" />
			<input>
				<port id="0" precision="I8">
					<dim>96</dim>
					<dim>48</dim>
					<dim>3</dim>
					<dim>3</dim>
				</port>
			</input>
			<output>
				<port id="1" precision="FP32">
					<dim>96</dim>
					<dim>48</dim>
					<dim>3</dim>
					<dim>3</dim>
				</port>
			</output>
		</layer>
		<layer id="196" name="Constant_492533_compressed" type="Const" version="opset1">
			<data element_type="f16" shape="96, 1, 1, 1" offset="65852" size="192" />
			<output>
				<port id="0" precision="FP16">
					<dim>96</dim>
					<dim>1</dim>
					<dim>1</dim>
					<dim>1</dim>
				</port>
			</output>
		</layer>
		<layer id="197" name="Constant_492533" type="Convert" version="opset1">
			<data destination_type="f32" />
			<rt_info>
				<attribute name="decompression" version="0" />
			</rt_info>
			<input>
				<port id="0" precision="FP16">
					<dim>96</dim>
					<dim>1</dim>
					<dim>1</dim>
					<dim>1</dim>
				</port>
			</input>
			<output>
				<port id="1" precision="FP32">
					<dim>96</dim>
					<dim>1</dim>
					<dim>1</dim>
					<dim>1</dim>
				</port>
			</output>
		</layer>
		<layer id="198" name="/backbone/stage2/stage2.0/conv/Conv/WithoutBiases/fq_weights_1" type="Multiply" version="opset1">
			<data auto_broadcast="numpy" />
			<input>
				<port id="0" precision="FP32">
					<dim>96</dim>
					<dim>48</dim>
					<dim>3</dim>
					<dim>3</dim>
				</port>
				<port id="1" precision="FP32">
					<dim>96</dim>
					<dim>1</dim>
					<dim>1</dim>
					<dim>1</dim>
				</port>
			</input>
			<output>
				<port id="2" precision="FP32">
					<dim>96</dim>
					<dim>48</dim>
					<dim>3</dim>
					<dim>3</dim>
				</port>
			</output>
		</layer>
		<layer id="199" name="/backbone/stage2/stage2.0/conv/Conv/WithoutBiases" type="Convolution" version="opset1">
			<data strides="2, 2" dilations="1, 1" pads_begin="1, 1" pads_end="1, 1" auto_pad="explicit" />
			<input>
				<port id="0" precision="FP32">
					<dim>-1</dim>
					<dim>48</dim>
					<dim>104</dim>
					<dim>-1</dim>
				</port>
				<port id="1" precision="FP32">
					<dim>96</dim>
					<dim>48</dim>
					<dim>3</dim>
					<dim>3</dim>
				</port>
			</input>
			<output>
				<port id="2" precision="FP32">
					<dim>-1</dim>
					<dim>96</dim>
					<dim>52</dim>
					<dim>-1</dim>
				</port>
			</output>
		</layer>
		<layer id="200" name="Reshape_381_compressed" type="Const" version="opset1">
			<data element_type="f16" shape="1, 96, 1, 1" offset="66044" size="192" />
			<output>
				<port id="0" precision="FP16">
					<dim>1</dim>
					<dim>96</dim>
					<dim>1</dim>
					<dim>1</dim>
				</port>
			</output>
		</layer>
		<layer id="201" name="Reshape_381" type="Convert" version="opset1">
			<data destination_type="f32" />
			<rt_info>
				<attribute name="decompression" version="0" />
			</rt_info>
			<input>
				<port id="0" precision="FP16">
					<dim>1</dim>
					<dim>96</dim>
					<dim>1</dim>
					<dim>1</dim>
				</port>
			</input>
			<output>
				<port id="1" precision="FP32">
					<dim>1</dim>
					<dim>96</dim>
					<dim>1</dim>
					<dim>1</dim>
				</port>
			</output>
		</layer>
		<layer id="202" name="/backbone/stage2/stage2.0/conv/Conv" type="Add" version="opset1">
			<data auto_broadcast="numpy" />
			<input>
				<port id="0" precision="FP32">
					<dim>-1</dim>
					<dim>96</dim>
					<dim>52</dim>
					<dim>-1</dim>
				</port>
				<port id="1" precision="FP32">
					<dim>1</dim>
					<dim>96</dim>
					<dim>1</dim>
					<dim>1</dim>
				</port>
			</input>
			<output>
				<port id="2" precision="FP32" names="/backbone/stage2/stage2.0/conv/Conv_output_0">
					<dim>-1</dim>
					<dim>96</dim>
					<dim>52</dim>
					<dim>-1</dim>
				</port>
			</output>
		</layer>
		<layer id="203" name="/backbone/stage2/stage2.0/activate/Mul" type="Swish" version="opset4">
			<input>
				<port id="0" precision="FP32">
					<dim>-1</dim>
					<dim>96</dim>
					<dim>52</dim>
					<dim>-1</dim>
				</port>
			</input>
			<output>
				<port id="1" precision="FP32" names="/backbone/stage2/stage2.0/activate/Mul_output_0">
					<dim>-1</dim>
					<dim>96</dim>
					<dim>52</dim>
					<dim>-1</dim>
				</port>
			</output>
		</layer>
		<layer id="204" name="Constant_63992_compressed" type="Const" version="opset1">
			<data element_type="f16" shape="" offset="66236" size="2" />
			<output>
				<port id="0" precision="FP16" />
			</output>
		</layer>
		<layer id="205" name="Constant_63992" type="Convert" version="opset1">
			<data destination_type="f32" />
			<rt_info>
				<attribute name="decompression" version="0" />
			</rt_info>
			<input>
				<port id="0" precision="FP16" />
			</input>
			<output>
				<port id="1" precision="FP32" />
			</output>
		</layer>
		<layer id="206" name="Constant_63993_compressed" type="Const" version="opset1">
			<data element_type="f16" shape="" offset="66238" size="2" />
			<output>
				<port id="0" precision="FP16" />
			</output>
		</layer>
		<layer id="207" name="Constant_63993" type="Convert" version="opset1">
			<data destination_type="f32" />
			<rt_info>
				<attribute name="decompression" version="0" />
			</rt_info>
			<input>
				<port id="0" precision="FP16" />
			</input>
			<output>
				<port id="1" precision="FP32" />
			</output>
		</layer>
		<layer id="208" name="Constant_63994_compressed" type="Const" version="opset1">
			<data element_type="f16" shape="" offset="66236" size="2" />
			<output>
				<port id="0" precision="FP16" />
			</output>
		</layer>
		<layer id="209" name="Constant_63994" type="Convert" version="opset1">
			<data destination_type="f32" />
			<rt_info>
				<attribute name="decompression" version="0" />
			</rt_info>
			<input>
				<port id="0" precision="FP16" />
			</input>
			<output>
				<port id="1" precision="FP32" />
			</output>
		</layer>
		<layer id="210" name="Constant_63995_compressed" type="Const" version="opset1">
			<data element_type="f16" shape="" offset="66238" size="2" />
			<output>
				<port id="0" precision="FP16" />
			</output>
		</layer>
		<layer id="211" name="Constant_63995" type="Convert" version="opset1">
			<data destination_type="f32" />
			<rt_info>
				<attribute name="decompression" version="0" />
			</rt_info>
			<input>
				<port id="0" precision="FP16" />
			</input>
			<output>
				<port id="1" precision="FP32" />
			</output>
		</layer>
		<layer id="212" name="/backbone/stage2/stage2.0/activate/Mul/fq_output_0" type="FakeQuantize" version="opset1">
			<data levels="256" auto_broadcast="numpy" />
			<input>
				<port id="0" precision="FP32">
					<dim>-1</dim>
					<dim>96</dim>
					<dim>52</dim>
					<dim>-1</dim>
				</port>
				<port id="1" precision="FP32" />
				<port id="2" precision="FP32" />
				<port id="3" precision="FP32" />
				<port id="4" precision="FP32" />
			</input>
			<output>
				<port id="5" precision="FP32">
					<dim>-1</dim>
					<dim>96</dim>
					<dim>52</dim>
					<dim>-1</dim>
				</port>
			</output>
		</layer>
		<layer id="213" name="Constant_492535" type="Const" version="opset1">
			<data element_type="i8" shape="48, 96, 1, 1" offset="66240" size="4608" />
			<output>
				<port id="0" precision="I8">
					<dim>48</dim>
					<dim>96</dim>
					<dim>1</dim>
					<dim>1</dim>
				</port>
			</output>
		</layer>
		<layer id="214" name="Convert_492536" type="Convert" version="opset1">
			<data destination_type="f32" />
			<input>
				<port id="0" precision="I8">
					<dim>48</dim>
					<dim>96</dim>
					<dim>1</dim>
					<dim>1</dim>
				</port>
			</input>
			<output>
				<port id="1" precision="FP32">
					<dim>48</dim>
					<dim>96</dim>
					<dim>1</dim>
					<dim>1</dim>
				</port>
			</output>
		</layer>
		<layer id="215" name="Constant_492537_compressed" type="Const" version="opset1">
			<data element_type="f16" shape="48, 1, 1, 1" offset="70848" size="96" />
			<output>
				<port id="0" precision="FP16">
					<dim>48</dim>
					<dim>1</dim>
					<dim>1</dim>
					<dim>1</dim>
				</port>
			</output>
		</layer>
		<layer id="216" name="Constant_492537" type="Convert" version="opset1">
			<data destination_type="f32" />
			<rt_info>
				<attribute name="decompression" version="0" />
			</rt_info>
			<input>
				<port id="0" precision="FP16">
					<dim>48</dim>
					<dim>1</dim>
					<dim>1</dim>
					<dim>1</dim>
				</port>
			</input>
			<output>
				<port id="1" precision="FP32">
					<dim>48</dim>
					<dim>1</dim>
					<dim>1</dim>
					<dim>1</dim>
				</port>
			</output>
		</layer>
		<layer id="217" name="/backbone/stage2/stage2.1/main_conv/conv/Conv/WithoutBiases/fq_weights_1" type="Multiply" version="opset1">
			<data auto_broadcast="numpy" />
			<input>
				<port id="0" precision="FP32">
					<dim>48</dim>
					<dim>96</dim>
					<dim>1</dim>
					<dim>1</dim>
				</port>
				<port id="1" precision="FP32">
					<dim>48</dim>
					<dim>1</dim>
					<dim>1</dim>
					<dim>1</dim>
				</port>
			</input>
			<output>
				<port id="2" precision="FP32">
					<dim>48</dim>
					<dim>96</dim>
					<dim>1</dim>
					<dim>1</dim>
				</port>
			</output>
		</layer>
		<layer id="218" name="/backbone/stage2/stage2.1/main_conv/conv/Conv/WithoutBiases" type="Convolution" version="opset1">
			<data strides="1, 1" dilations="1, 1" pads_begin="0, 0" pads_end="0, 0" auto_pad="explicit" />
			<input>
				<port id="0" precision="FP32">
					<dim>-1</dim>
					<dim>96</dim>
					<dim>52</dim>
					<dim>-1</dim>
				</port>
				<port id="1" precision="FP32">
					<dim>48</dim>
					<dim>96</dim>
					<dim>1</dim>
					<dim>1</dim>
				</port>
			</input>
			<output>
				<port id="2" precision="FP32">
					<dim>-1</dim>
					<dim>48</dim>
					<dim>52</dim>
					<dim>-1</dim>
				</port>
			</output>
		</layer>
		<layer id="219" name="Reshape_417_compressed" type="Const" version="opset1">
			<data element_type="f16" shape="1, 48, 1, 1" offset="70944" size="96" />
			<output>
				<port id="0" precision="FP16">
					<dim>1</dim>
					<dim>48</dim>
					<dim>1</dim>
					<dim>1</dim>
				</port>
			</output>
		</layer>
		<layer id="220" name="Reshape_417" type="Convert" version="opset1">
			<data destination_type="f32" />
			<rt_info>
				<attribute name="decompression" version="0" />
			</rt_info>
			<input>
				<port id="0" precision="FP16">
					<dim>1</dim>
					<dim>48</dim>
					<dim>1</dim>
					<dim>1</dim>
				</port>
			</input>
			<output>
				<port id="1" precision="FP32">
					<dim>1</dim>
					<dim>48</dim>
					<dim>1</dim>
					<dim>1</dim>
				</port>
			</output>
		</layer>
		<layer id="221" name="/backbone/stage2/stage2.1/main_conv/conv/Conv" type="Add" version="opset1">
			<data auto_broadcast="numpy" />
			<input>
				<port id="0" precision="FP32">
					<dim>-1</dim>
					<dim>48</dim>
					<dim>52</dim>
					<dim>-1</dim>
				</port>
				<port id="1" precision="FP32">
					<dim>1</dim>
					<dim>48</dim>
					<dim>1</dim>
					<dim>1</dim>
				</port>
			</input>
			<output>
				<port id="2" precision="FP32" names="/backbone/stage2/stage2.1/main_conv/conv/Conv_output_0">
					<dim>-1</dim>
					<dim>48</dim>
					<dim>52</dim>
					<dim>-1</dim>
				</port>
			</output>
		</layer>
		<layer id="222" name="/backbone/stage2/stage2.1/main_conv/activate/Mul" type="Swish" version="opset4">
			<input>
				<port id="0" precision="FP32">
					<dim>-1</dim>
					<dim>48</dim>
					<dim>52</dim>
					<dim>-1</dim>
				</port>
			</input>
			<output>
				<port id="1" precision="FP32" names="/backbone/stage2/stage2.1/main_conv/activate/Mul_output_0">
					<dim>-1</dim>
					<dim>48</dim>
					<dim>52</dim>
					<dim>-1</dim>
				</port>
			</output>
		</layer>
		<layer id="223" name="Constant_64007_compressed" type="Const" version="opset1">
			<data element_type="f16" shape="" offset="71040" size="2" />
			<output>
				<port id="0" precision="FP16" />
			</output>
		</layer>
		<layer id="224" name="Constant_64007" type="Convert" version="opset1">
			<data destination_type="f32" />
			<rt_info>
				<attribute name="decompression" version="0" />
			</rt_info>
			<input>
				<port id="0" precision="FP16" />
			</input>
			<output>
				<port id="1" precision="FP32" />
			</output>
		</layer>
		<layer id="225" name="Constant_64008_compressed" type="Const" version="opset1">
			<data element_type="f16" shape="" offset="71042" size="2" />
			<output>
				<port id="0" precision="FP16" />
			</output>
		</layer>
		<layer id="226" name="Constant_64008" type="Convert" version="opset1">
			<data destination_type="f32" />
			<rt_info>
				<attribute name="decompression" version="0" />
			</rt_info>
			<input>
				<port id="0" precision="FP16" />
			</input>
			<output>
				<port id="1" precision="FP32" />
			</output>
		</layer>
		<layer id="227" name="Constant_64009_compressed" type="Const" version="opset1">
			<data element_type="f16" shape="" offset="71040" size="2" />
			<output>
				<port id="0" precision="FP16" />
			</output>
		</layer>
		<layer id="228" name="Constant_64009" type="Convert" version="opset1">
			<data destination_type="f32" />
			<rt_info>
				<attribute name="decompression" version="0" />
			</rt_info>
			<input>
				<port id="0" precision="FP16" />
			</input>
			<output>
				<port id="1" precision="FP32" />
			</output>
		</layer>
		<layer id="229" name="Constant_64010_compressed" type="Const" version="opset1">
			<data element_type="f16" shape="" offset="71042" size="2" />
			<output>
				<port id="0" precision="FP16" />
			</output>
		</layer>
		<layer id="230" name="Constant_64010" type="Convert" version="opset1">
			<data destination_type="f32" />
			<rt_info>
				<attribute name="decompression" version="0" />
			</rt_info>
			<input>
				<port id="0" precision="FP16" />
			</input>
			<output>
				<port id="1" precision="FP32" />
			</output>
		</layer>
		<layer id="231" name="/backbone/stage2/stage2.1/main_conv/activate/Mul/fq_output_0" type="FakeQuantize" version="opset1">
			<data levels="256" auto_broadcast="numpy" />
			<input>
				<port id="0" precision="FP32">
					<dim>-1</dim>
					<dim>48</dim>
					<dim>52</dim>
					<dim>-1</dim>
				</port>
				<port id="1" precision="FP32" />
				<port id="2" precision="FP32" />
				<port id="3" precision="FP32" />
				<port id="4" precision="FP32" />
			</input>
			<output>
				<port id="5" precision="FP32">
					<dim>-1</dim>
					<dim>48</dim>
					<dim>52</dim>
					<dim>-1</dim>
				</port>
			</output>
		</layer>
		<layer id="232" name="Constant_492539" type="Const" version="opset1">
			<data element_type="i8" shape="48, 48, 1, 1" offset="71044" size="2304" />
			<output>
				<port id="0" precision="I8">
					<dim>48</dim>
					<dim>48</dim>
					<dim>1</dim>
					<dim>1</dim>
				</port>
			</output>
		</layer>
		<layer id="233" name="Convert_492540" type="Convert" version="opset1">
			<data destination_type="f32" />
			<input>
				<port id="0" precision="I8">
					<dim>48</dim>
					<dim>48</dim>
					<dim>1</dim>
					<dim>1</dim>
				</port>
			</input>
			<output>
				<port id="1" precision="FP32">
					<dim>48</dim>
					<dim>48</dim>
					<dim>1</dim>
					<dim>1</dim>
				</port>
			</output>
		</layer>
		<layer id="234" name="Constant_492541_compressed" type="Const" version="opset1">
			<data element_type="f16" shape="48, 1, 1, 1" offset="73348" size="96" />
			<output>
				<port id="0" precision="FP16">
					<dim>48</dim>
					<dim>1</dim>
					<dim>1</dim>
					<dim>1</dim>
				</port>
			</output>
		</layer>
		<layer id="235" name="Constant_492541" type="Convert" version="opset1">
			<data destination_type="f32" />
			<rt_info>
				<attribute name="decompression" version="0" />
			</rt_info>
			<input>
				<port id="0" precision="FP16">
					<dim>48</dim>
					<dim>1</dim>
					<dim>1</dim>
					<dim>1</dim>
				</port>
			</input>
			<output>
				<port id="1" precision="FP32">
					<dim>48</dim>
					<dim>1</dim>
					<dim>1</dim>
					<dim>1</dim>
				</port>
			</output>
		</layer>
		<layer id="236" name="/backbone/stage2/stage2.1/blocks/blocks.0/conv1/conv/Conv/WithoutBiases/fq_weights_1" type="Multiply" version="opset1">
			<data auto_broadcast="numpy" />
			<input>
				<port id="0" precision="FP32">
					<dim>48</dim>
					<dim>48</dim>
					<dim>1</dim>
					<dim>1</dim>
				</port>
				<port id="1" precision="FP32">
					<dim>48</dim>
					<dim>1</dim>
					<dim>1</dim>
					<dim>1</dim>
				</port>
			</input>
			<output>
				<port id="2" precision="FP32">
					<dim>48</dim>
					<dim>48</dim>
					<dim>1</dim>
					<dim>1</dim>
				</port>
			</output>
		</layer>
		<layer id="237" name="/backbone/stage2/stage2.1/blocks/blocks.0/conv1/conv/Conv/WithoutBiases" type="Convolution" version="opset1">
			<data strides="1, 1" dilations="1, 1" pads_begin="0, 0" pads_end="0, 0" auto_pad="explicit" />
			<input>
				<port id="0" precision="FP32">
					<dim>-1</dim>
					<dim>48</dim>
					<dim>52</dim>
					<dim>-1</dim>
				</port>
				<port id="1" precision="FP32">
					<dim>48</dim>
					<dim>48</dim>
					<dim>1</dim>
					<dim>1</dim>
				</port>
			</input>
			<output>
				<port id="2" precision="FP32">
					<dim>-1</dim>
					<dim>48</dim>
					<dim>52</dim>
					<dim>-1</dim>
				</port>
			</output>
		</layer>
		<layer id="238" name="Reshape_435_compressed" type="Const" version="opset1">
			<data element_type="f16" shape="1, 48, 1, 1" offset="73444" size="96" />
			<output>
				<port id="0" precision="FP16">
					<dim>1</dim>
					<dim>48</dim>
					<dim>1</dim>
					<dim>1</dim>
				</port>
			</output>
		</layer>
		<layer id="239" name="Reshape_435" type="Convert" version="opset1">
			<data destination_type="f32" />
			<rt_info>
				<attribute name="decompression" version="0" />
			</rt_info>
			<input>
				<port id="0" precision="FP16">
					<dim>1</dim>
					<dim>48</dim>
					<dim>1</dim>
					<dim>1</dim>
				</port>
			</input>
			<output>
				<port id="1" precision="FP32">
					<dim>1</dim>
					<dim>48</dim>
					<dim>1</dim>
					<dim>1</dim>
				</port>
			</output>
		</layer>
		<layer id="240" name="/backbone/stage2/stage2.1/blocks/blocks.0/conv1/conv/Conv" type="Add" version="opset1">
			<data auto_broadcast="numpy" />
			<input>
				<port id="0" precision="FP32">
					<dim>-1</dim>
					<dim>48</dim>
					<dim>52</dim>
					<dim>-1</dim>
				</port>
				<port id="1" precision="FP32">
					<dim>1</dim>
					<dim>48</dim>
					<dim>1</dim>
					<dim>1</dim>
				</port>
			</input>
			<output>
				<port id="2" precision="FP32" names="/backbone/stage2/stage2.1/blocks/blocks.0/conv1/conv/Conv_output_0">
					<dim>-1</dim>
					<dim>48</dim>
					<dim>52</dim>
					<dim>-1</dim>
				</port>
			</output>
		</layer>
		<layer id="241" name="/backbone/stage2/stage2.1/blocks/blocks.0/conv1/activate/Mul" type="Swish" version="opset4">
			<input>
				<port id="0" precision="FP32">
					<dim>-1</dim>
					<dim>48</dim>
					<dim>52</dim>
					<dim>-1</dim>
				</port>
			</input>
			<output>
				<port id="1" precision="FP32" names="/backbone/stage2/stage2.1/blocks/blocks.0/conv1/activate/Mul_output_0">
					<dim>-1</dim>
					<dim>48</dim>
					<dim>52</dim>
					<dim>-1</dim>
				</port>
			</output>
		</layer>
		<layer id="242" name="Constant_64017_compressed" type="Const" version="opset1">
			<data element_type="f16" shape="" offset="73540" size="2" />
			<output>
				<port id="0" precision="FP16" />
			</output>
		</layer>
		<layer id="243" name="Constant_64017" type="Convert" version="opset1">
			<data destination_type="f32" />
			<rt_info>
				<attribute name="decompression" version="0" />
			</rt_info>
			<input>
				<port id="0" precision="FP16" />
			</input>
			<output>
				<port id="1" precision="FP32" />
			</output>
		</layer>
		<layer id="244" name="Constant_64018_compressed" type="Const" version="opset1">
			<data element_type="f16" shape="" offset="73542" size="2" />
			<output>
				<port id="0" precision="FP16" />
			</output>
		</layer>
		<layer id="245" name="Constant_64018" type="Convert" version="opset1">
			<data destination_type="f32" />
			<rt_info>
				<attribute name="decompression" version="0" />
			</rt_info>
			<input>
				<port id="0" precision="FP16" />
			</input>
			<output>
				<port id="1" precision="FP32" />
			</output>
		</layer>
		<layer id="246" name="Constant_64019_compressed" type="Const" version="opset1">
			<data element_type="f16" shape="" offset="73540" size="2" />
			<output>
				<port id="0" precision="FP16" />
			</output>
		</layer>
		<layer id="247" name="Constant_64019" type="Convert" version="opset1">
			<data destination_type="f32" />
			<rt_info>
				<attribute name="decompression" version="0" />
			</rt_info>
			<input>
				<port id="0" precision="FP16" />
			</input>
			<output>
				<port id="1" precision="FP32" />
			</output>
		</layer>
		<layer id="248" name="Constant_64020_compressed" type="Const" version="opset1">
			<data element_type="f16" shape="" offset="73542" size="2" />
			<output>
				<port id="0" precision="FP16" />
			</output>
		</layer>
		<layer id="249" name="Constant_64020" type="Convert" version="opset1">
			<data destination_type="f32" />
			<rt_info>
				<attribute name="decompression" version="0" />
			</rt_info>
			<input>
				<port id="0" precision="FP16" />
			</input>
			<output>
				<port id="1" precision="FP32" />
			</output>
		</layer>
		<layer id="250" name="/backbone/stage2/stage2.1/blocks/blocks.0/conv1/activate/Mul/fq_output_0" type="FakeQuantize" version="opset1">
			<data levels="256" auto_broadcast="numpy" />
			<input>
				<port id="0" precision="FP32">
					<dim>-1</dim>
					<dim>48</dim>
					<dim>52</dim>
					<dim>-1</dim>
				</port>
				<port id="1" precision="FP32" />
				<port id="2" precision="FP32" />
				<port id="3" precision="FP32" />
				<port id="4" precision="FP32" />
			</input>
			<output>
				<port id="5" precision="FP32">
					<dim>-1</dim>
					<dim>48</dim>
					<dim>52</dim>
					<dim>-1</dim>
				</port>
			</output>
		</layer>
		<layer id="251" name="Constant_492543" type="Const" version="opset1">
			<data element_type="i8" shape="48, 48, 3, 3" offset="73544" size="20736" />
			<output>
				<port id="0" precision="I8">
					<dim>48</dim>
					<dim>48</dim>
					<dim>3</dim>
					<dim>3</dim>
				</port>
			</output>
		</layer>
		<layer id="252" name="Convert_492544" type="Convert" version="opset1">
			<data destination_type="f32" />
			<input>
				<port id="0" precision="I8">
					<dim>48</dim>
					<dim>48</dim>
					<dim>3</dim>
					<dim>3</dim>
				</port>
			</input>
			<output>
				<port id="1" precision="FP32">
					<dim>48</dim>
					<dim>48</dim>
					<dim>3</dim>
					<dim>3</dim>
				</port>
			</output>
		</layer>
		<layer id="253" name="Constant_492545_compressed" type="Const" version="opset1">
			<data element_type="f16" shape="48, 1, 1, 1" offset="94280" size="96" />
			<output>
				<port id="0" precision="FP16">
					<dim>48</dim>
					<dim>1</dim>
					<dim>1</dim>
					<dim>1</dim>
				</port>
			</output>
		</layer>
		<layer id="254" name="Constant_492545" type="Convert" version="opset1">
			<data destination_type="f32" />
			<rt_info>
				<attribute name="decompression" version="0" />
			</rt_info>
			<input>
				<port id="0" precision="FP16">
					<dim>48</dim>
					<dim>1</dim>
					<dim>1</dim>
					<dim>1</dim>
				</port>
			</input>
			<output>
				<port id="1" precision="FP32">
					<dim>48</dim>
					<dim>1</dim>
					<dim>1</dim>
					<dim>1</dim>
				</port>
			</output>
		</layer>
		<layer id="255" name="/backbone/stage2/stage2.1/blocks/blocks.0/conv2/conv/Conv/WithoutBiases/fq_weights_1" type="Multiply" version="opset1">
			<data auto_broadcast="numpy" />
			<input>
				<port id="0" precision="FP32">
					<dim>48</dim>
					<dim>48</dim>
					<dim>3</dim>
					<dim>3</dim>
				</port>
				<port id="1" precision="FP32">
					<dim>48</dim>
					<dim>1</dim>
					<dim>1</dim>
					<dim>1</dim>
				</port>
			</input>
			<output>
				<port id="2" precision="FP32">
					<dim>48</dim>
					<dim>48</dim>
					<dim>3</dim>
					<dim>3</dim>
				</port>
			</output>
		</layer>
		<layer id="256" name="/backbone/stage2/stage2.1/blocks/blocks.0/conv2/conv/Conv/WithoutBiases" type="Convolution" version="opset1">
			<data strides="1, 1" dilations="1, 1" pads_begin="1, 1" pads_end="1, 1" auto_pad="explicit" />
			<input>
				<port id="0" precision="FP32">
					<dim>-1</dim>
					<dim>48</dim>
					<dim>52</dim>
					<dim>-1</dim>
				</port>
				<port id="1" precision="FP32">
					<dim>48</dim>
					<dim>48</dim>
					<dim>3</dim>
					<dim>3</dim>
				</port>
			</input>
			<output>
				<port id="2" precision="FP32">
					<dim>-1</dim>
					<dim>48</dim>
					<dim>52</dim>
					<dim>-1</dim>
				</port>
			</output>
		</layer>
		<layer id="257" name="Reshape_453_compressed" type="Const" version="opset1">
			<data element_type="f16" shape="1, 48, 1, 1" offset="94376" size="96" />
			<output>
				<port id="0" precision="FP16">
					<dim>1</dim>
					<dim>48</dim>
					<dim>1</dim>
					<dim>1</dim>
				</port>
			</output>
		</layer>
		<layer id="258" name="Reshape_453" type="Convert" version="opset1">
			<data destination_type="f32" />
			<rt_info>
				<attribute name="decompression" version="0" />
			</rt_info>
			<input>
				<port id="0" precision="FP16">
					<dim>1</dim>
					<dim>48</dim>
					<dim>1</dim>
					<dim>1</dim>
				</port>
			</input>
			<output>
				<port id="1" precision="FP32">
					<dim>1</dim>
					<dim>48</dim>
					<dim>1</dim>
					<dim>1</dim>
				</port>
			</output>
		</layer>
		<layer id="259" name="/backbone/stage2/stage2.1/blocks/blocks.0/conv2/conv/Conv" type="Add" version="opset1">
			<data auto_broadcast="numpy" />
			<input>
				<port id="0" precision="FP32">
					<dim>-1</dim>
					<dim>48</dim>
					<dim>52</dim>
					<dim>-1</dim>
				</port>
				<port id="1" precision="FP32">
					<dim>1</dim>
					<dim>48</dim>
					<dim>1</dim>
					<dim>1</dim>
				</port>
			</input>
			<output>
				<port id="2" precision="FP32" names="/backbone/stage2/stage2.1/blocks/blocks.0/conv2/conv/Conv_output_0">
					<dim>-1</dim>
					<dim>48</dim>
					<dim>52</dim>
					<dim>-1</dim>
				</port>
			</output>
		</layer>
		<layer id="260" name="/backbone/stage2/stage2.1/blocks/blocks.0/conv2/activate/Mul" type="Swish" version="opset4">
			<input>
				<port id="0" precision="FP32">
					<dim>-1</dim>
					<dim>48</dim>
					<dim>52</dim>
					<dim>-1</dim>
				</port>
			</input>
			<output>
				<port id="1" precision="FP32" names="/backbone/stage2/stage2.1/blocks/blocks.0/conv2/activate/Mul_output_0">
					<dim>-1</dim>
					<dim>48</dim>
					<dim>52</dim>
					<dim>-1</dim>
				</port>
			</output>
		</layer>
		<layer id="261" name="Constant_64027_compressed" type="Const" version="opset1">
			<data element_type="f16" shape="" offset="94472" size="2" />
			<output>
				<port id="0" precision="FP16" />
			</output>
		</layer>
		<layer id="262" name="Constant_64027" type="Convert" version="opset1">
			<data destination_type="f32" />
			<rt_info>
				<attribute name="decompression" version="0" />
			</rt_info>
			<input>
				<port id="0" precision="FP16" />
			</input>
			<output>
				<port id="1" precision="FP32" />
			</output>
		</layer>
		<layer id="263" name="Constant_64028_compressed" type="Const" version="opset1">
			<data element_type="f16" shape="" offset="94474" size="2" />
			<output>
				<port id="0" precision="FP16" />
			</output>
		</layer>
		<layer id="264" name="Constant_64028" type="Convert" version="opset1">
			<data destination_type="f32" />
			<rt_info>
				<attribute name="decompression" version="0" />
			</rt_info>
			<input>
				<port id="0" precision="FP16" />
			</input>
			<output>
				<port id="1" precision="FP32" />
			</output>
		</layer>
		<layer id="265" name="Constant_64029_compressed" type="Const" version="opset1">
			<data element_type="f16" shape="" offset="94472" size="2" />
			<output>
				<port id="0" precision="FP16" />
			</output>
		</layer>
		<layer id="266" name="Constant_64029" type="Convert" version="opset1">
			<data destination_type="f32" />
			<rt_info>
				<attribute name="decompression" version="0" />
			</rt_info>
			<input>
				<port id="0" precision="FP16" />
			</input>
			<output>
				<port id="1" precision="FP32" />
			</output>
		</layer>
		<layer id="267" name="Constant_64030_compressed" type="Const" version="opset1">
			<data element_type="f16" shape="" offset="94474" size="2" />
			<output>
				<port id="0" precision="FP16" />
			</output>
		</layer>
		<layer id="268" name="Constant_64030" type="Convert" version="opset1">
			<data destination_type="f32" />
			<rt_info>
				<attribute name="decompression" version="0" />
			</rt_info>
			<input>
				<port id="0" precision="FP16" />
			</input>
			<output>
				<port id="1" precision="FP32" />
			</output>
		</layer>
		<layer id="269" name="/backbone/stage2/stage2.1/blocks/blocks.0/conv2/activate/Mul/fq_output_0" type="FakeQuantize" version="opset1">
			<data levels="256" auto_broadcast="numpy" />
			<input>
				<port id="0" precision="FP32">
					<dim>-1</dim>
					<dim>48</dim>
					<dim>52</dim>
					<dim>-1</dim>
				</port>
				<port id="1" precision="FP32" />
				<port id="2" precision="FP32" />
				<port id="3" precision="FP32" />
				<port id="4" precision="FP32" />
			</input>
			<output>
				<port id="5" precision="FP32">
					<dim>-1</dim>
					<dim>48</dim>
					<dim>52</dim>
					<dim>-1</dim>
				</port>
			</output>
		</layer>
		<layer id="270" name="/backbone/stage2/stage2.1/blocks/blocks.0/Add" type="Add" version="opset1">
			<data auto_broadcast="numpy" />
			<input>
				<port id="0" precision="FP32">
					<dim>-1</dim>
					<dim>48</dim>
					<dim>52</dim>
					<dim>-1</dim>
				</port>
				<port id="1" precision="FP32">
					<dim>-1</dim>
					<dim>48</dim>
					<dim>52</dim>
					<dim>-1</dim>
				</port>
			</input>
			<output>
				<port id="2" precision="FP32" names="/backbone/stage2/stage2.1/blocks/blocks.0/Add_output_0">
					<dim>-1</dim>
					<dim>48</dim>
					<dim>52</dim>
					<dim>-1</dim>
				</port>
			</output>
		</layer>
		<layer id="271" name="Constant_64032_compressed" type="Const" version="opset1">
			<data element_type="f16" shape="" offset="94476" size="2" />
			<output>
				<port id="0" precision="FP16" />
			</output>
		</layer>
		<layer id="272" name="Constant_64032" type="Convert" version="opset1">
			<data destination_type="f32" />
			<rt_info>
				<attribute name="decompression" version="0" />
			</rt_info>
			<input>
				<port id="0" precision="FP16" />
			</input>
			<output>
				<port id="1" precision="FP32" />
			</output>
		</layer>
		<layer id="273" name="Constant_64033_compressed" type="Const" version="opset1">
			<data element_type="f16" shape="" offset="94478" size="2" />
			<output>
				<port id="0" precision="FP16" />
			</output>
		</layer>
		<layer id="274" name="Constant_64033" type="Convert" version="opset1">
			<data destination_type="f32" />
			<rt_info>
				<attribute name="decompression" version="0" />
			</rt_info>
			<input>
				<port id="0" precision="FP16" />
			</input>
			<output>
				<port id="1" precision="FP32" />
			</output>
		</layer>
		<layer id="275" name="Constant_64034_compressed" type="Const" version="opset1">
			<data element_type="f16" shape="" offset="94476" size="2" />
			<output>
				<port id="0" precision="FP16" />
			</output>
		</layer>
		<layer id="276" name="Constant_64034" type="Convert" version="opset1">
			<data destination_type="f32" />
			<rt_info>
				<attribute name="decompression" version="0" />
			</rt_info>
			<input>
				<port id="0" precision="FP16" />
			</input>
			<output>
				<port id="1" precision="FP32" />
			</output>
		</layer>
		<layer id="277" name="Constant_64035_compressed" type="Const" version="opset1">
			<data element_type="f16" shape="" offset="94478" size="2" />
			<output>
				<port id="0" precision="FP16" />
			</output>
		</layer>
		<layer id="278" name="Constant_64035" type="Convert" version="opset1">
			<data destination_type="f32" />
			<rt_info>
				<attribute name="decompression" version="0" />
			</rt_info>
			<input>
				<port id="0" precision="FP16" />
			</input>
			<output>
				<port id="1" precision="FP32" />
			</output>
		</layer>
		<layer id="279" name="/backbone/stage2/stage2.1/blocks/blocks.0/Add/fq_output_0" type="FakeQuantize" version="opset1">
			<data levels="256" auto_broadcast="numpy" />
			<input>
				<port id="0" precision="FP32">
					<dim>-1</dim>
					<dim>48</dim>
					<dim>52</dim>
					<dim>-1</dim>
				</port>
				<port id="1" precision="FP32" />
				<port id="2" precision="FP32" />
				<port id="3" precision="FP32" />
				<port id="4" precision="FP32" />
			</input>
			<output>
				<port id="5" precision="FP32">
					<dim>-1</dim>
					<dim>48</dim>
					<dim>52</dim>
					<dim>-1</dim>
				</port>
			</output>
		</layer>
		<layer id="280" name="Constant_492547" type="Const" version="opset1">
			<data element_type="i8" shape="48, 48, 1, 1" offset="94480" size="2304" />
			<output>
				<port id="0" precision="I8">
					<dim>48</dim>
					<dim>48</dim>
					<dim>1</dim>
					<dim>1</dim>
				</port>
			</output>
		</layer>
		<layer id="281" name="Convert_492548" type="Convert" version="opset1">
			<data destination_type="f32" />
			<input>
				<port id="0" precision="I8">
					<dim>48</dim>
					<dim>48</dim>
					<dim>1</dim>
					<dim>1</dim>
				</port>
			</input>
			<output>
				<port id="1" precision="FP32">
					<dim>48</dim>
					<dim>48</dim>
					<dim>1</dim>
					<dim>1</dim>
				</port>
			</output>
		</layer>
		<layer id="282" name="Constant_492549_compressed" type="Const" version="opset1">
			<data element_type="f16" shape="48, 1, 1, 1" offset="96784" size="96" />
			<output>
				<port id="0" precision="FP16">
					<dim>48</dim>
					<dim>1</dim>
					<dim>1</dim>
					<dim>1</dim>
				</port>
			</output>
		</layer>
		<layer id="283" name="Constant_492549" type="Convert" version="opset1">
			<data destination_type="f32" />
			<rt_info>
				<attribute name="decompression" version="0" />
			</rt_info>
			<input>
				<port id="0" precision="FP16">
					<dim>48</dim>
					<dim>1</dim>
					<dim>1</dim>
					<dim>1</dim>
				</port>
			</input>
			<output>
				<port id="1" precision="FP32">
					<dim>48</dim>
					<dim>1</dim>
					<dim>1</dim>
					<dim>1</dim>
				</port>
			</output>
		</layer>
		<layer id="284" name="/backbone/stage2/stage2.1/blocks/blocks.1/conv1/conv/Conv/WithoutBiases/fq_weights_1" type="Multiply" version="opset1">
			<data auto_broadcast="numpy" />
			<input>
				<port id="0" precision="FP32">
					<dim>48</dim>
					<dim>48</dim>
					<dim>1</dim>
					<dim>1</dim>
				</port>
				<port id="1" precision="FP32">
					<dim>48</dim>
					<dim>1</dim>
					<dim>1</dim>
					<dim>1</dim>
				</port>
			</input>
			<output>
				<port id="2" precision="FP32">
					<dim>48</dim>
					<dim>48</dim>
					<dim>1</dim>
					<dim>1</dim>
				</port>
			</output>
		</layer>
		<layer id="285" name="/backbone/stage2/stage2.1/blocks/blocks.1/conv1/conv/Conv/WithoutBiases" type="Convolution" version="opset1">
			<data strides="1, 1" dilations="1, 1" pads_begin="0, 0" pads_end="0, 0" auto_pad="explicit" />
			<input>
				<port id="0" precision="FP32">
					<dim>-1</dim>
					<dim>48</dim>
					<dim>52</dim>
					<dim>-1</dim>
				</port>
				<port id="1" precision="FP32">
					<dim>48</dim>
					<dim>48</dim>
					<dim>1</dim>
					<dim>1</dim>
				</port>
			</input>
			<output>
				<port id="2" precision="FP32">
					<dim>-1</dim>
					<dim>48</dim>
					<dim>52</dim>
					<dim>-1</dim>
				</port>
			</output>
		</layer>
		<layer id="286" name="Reshape_472_compressed" type="Const" version="opset1">
			<data element_type="f16" shape="1, 48, 1, 1" offset="96880" size="96" />
			<output>
				<port id="0" precision="FP16">
					<dim>1</dim>
					<dim>48</dim>
					<dim>1</dim>
					<dim>1</dim>
				</port>
			</output>
		</layer>
		<layer id="287" name="Reshape_472" type="Convert" version="opset1">
			<data destination_type="f32" />
			<rt_info>
				<attribute name="decompression" version="0" />
			</rt_info>
			<input>
				<port id="0" precision="FP16">
					<dim>1</dim>
					<dim>48</dim>
					<dim>1</dim>
					<dim>1</dim>
				</port>
			</input>
			<output>
				<port id="1" precision="FP32">
					<dim>1</dim>
					<dim>48</dim>
					<dim>1</dim>
					<dim>1</dim>
				</port>
			</output>
		</layer>
		<layer id="288" name="/backbone/stage2/stage2.1/blocks/blocks.1/conv1/conv/Conv" type="Add" version="opset1">
			<data auto_broadcast="numpy" />
			<input>
				<port id="0" precision="FP32">
					<dim>-1</dim>
					<dim>48</dim>
					<dim>52</dim>
					<dim>-1</dim>
				</port>
				<port id="1" precision="FP32">
					<dim>1</dim>
					<dim>48</dim>
					<dim>1</dim>
					<dim>1</dim>
				</port>
			</input>
			<output>
				<port id="2" precision="FP32" names="/backbone/stage2/stage2.1/blocks/blocks.1/conv1/conv/Conv_output_0">
					<dim>-1</dim>
					<dim>48</dim>
					<dim>52</dim>
					<dim>-1</dim>
				</port>
			</output>
		</layer>
		<layer id="289" name="/backbone/stage2/stage2.1/blocks/blocks.1/conv1/activate/Mul" type="Swish" version="opset4">
			<input>
				<port id="0" precision="FP32">
					<dim>-1</dim>
					<dim>48</dim>
					<dim>52</dim>
					<dim>-1</dim>
				</port>
			</input>
			<output>
				<port id="1" precision="FP32" names="/backbone/stage2/stage2.1/blocks/blocks.1/conv1/activate/Mul_output_0">
					<dim>-1</dim>
					<dim>48</dim>
					<dim>52</dim>
					<dim>-1</dim>
				</port>
			</output>
		</layer>
		<layer id="290" name="Constant_64042_compressed" type="Const" version="opset1">
			<data element_type="f16" shape="" offset="96976" size="2" />
			<output>
				<port id="0" precision="FP16" />
			</output>
		</layer>
		<layer id="291" name="Constant_64042" type="Convert" version="opset1">
			<data destination_type="f32" />
			<rt_info>
				<attribute name="decompression" version="0" />
			</rt_info>
			<input>
				<port id="0" precision="FP16" />
			</input>
			<output>
				<port id="1" precision="FP32" />
			</output>
		</layer>
		<layer id="292" name="Constant_64043_compressed" type="Const" version="opset1">
			<data element_type="f16" shape="" offset="96978" size="2" />
			<output>
				<port id="0" precision="FP16" />
			</output>
		</layer>
		<layer id="293" name="Constant_64043" type="Convert" version="opset1">
			<data destination_type="f32" />
			<rt_info>
				<attribute name="decompression" version="0" />
			</rt_info>
			<input>
				<port id="0" precision="FP16" />
			</input>
			<output>
				<port id="1" precision="FP32" />
			</output>
		</layer>
		<layer id="294" name="Constant_64044_compressed" type="Const" version="opset1">
			<data element_type="f16" shape="" offset="96976" size="2" />
			<output>
				<port id="0" precision="FP16" />
			</output>
		</layer>
		<layer id="295" name="Constant_64044" type="Convert" version="opset1">
			<data destination_type="f32" />
			<rt_info>
				<attribute name="decompression" version="0" />
			</rt_info>
			<input>
				<port id="0" precision="FP16" />
			</input>
			<output>
				<port id="1" precision="FP32" />
			</output>
		</layer>
		<layer id="296" name="Constant_64045_compressed" type="Const" version="opset1">
			<data element_type="f16" shape="" offset="96978" size="2" />
			<output>
				<port id="0" precision="FP16" />
			</output>
		</layer>
		<layer id="297" name="Constant_64045" type="Convert" version="opset1">
			<data destination_type="f32" />
			<rt_info>
				<attribute name="decompression" version="0" />
			</rt_info>
			<input>
				<port id="0" precision="FP16" />
			</input>
			<output>
				<port id="1" precision="FP32" />
			</output>
		</layer>
		<layer id="298" name="/backbone/stage2/stage2.1/blocks/blocks.1/conv1/activate/Mul/fq_output_0" type="FakeQuantize" version="opset1">
			<data levels="256" auto_broadcast="numpy" />
			<input>
				<port id="0" precision="FP32">
					<dim>-1</dim>
					<dim>48</dim>
					<dim>52</dim>
					<dim>-1</dim>
				</port>
				<port id="1" precision="FP32" />
				<port id="2" precision="FP32" />
				<port id="3" precision="FP32" />
				<port id="4" precision="FP32" />
			</input>
			<output>
				<port id="5" precision="FP32">
					<dim>-1</dim>
					<dim>48</dim>
					<dim>52</dim>
					<dim>-1</dim>
				</port>
			</output>
		</layer>
		<layer id="299" name="Constant_492551" type="Const" version="opset1">
			<data element_type="i8" shape="48, 48, 3, 3" offset="96980" size="20736" />
			<output>
				<port id="0" precision="I8">
					<dim>48</dim>
					<dim>48</dim>
					<dim>3</dim>
					<dim>3</dim>
				</port>
			</output>
		</layer>
		<layer id="300" name="Convert_492552" type="Convert" version="opset1">
			<data destination_type="f32" />
			<input>
				<port id="0" precision="I8">
					<dim>48</dim>
					<dim>48</dim>
					<dim>3</dim>
					<dim>3</dim>
				</port>
			</input>
			<output>
				<port id="1" precision="FP32">
					<dim>48</dim>
					<dim>48</dim>
					<dim>3</dim>
					<dim>3</dim>
				</port>
			</output>
		</layer>
		<layer id="301" name="Constant_492553_compressed" type="Const" version="opset1">
			<data element_type="f16" shape="48, 1, 1, 1" offset="117716" size="96" />
			<output>
				<port id="0" precision="FP16">
					<dim>48</dim>
					<dim>1</dim>
					<dim>1</dim>
					<dim>1</dim>
				</port>
			</output>
		</layer>
		<layer id="302" name="Constant_492553" type="Convert" version="opset1">
			<data destination_type="f32" />
			<rt_info>
				<attribute name="decompression" version="0" />
			</rt_info>
			<input>
				<port id="0" precision="FP16">
					<dim>48</dim>
					<dim>1</dim>
					<dim>1</dim>
					<dim>1</dim>
				</port>
			</input>
			<output>
				<port id="1" precision="FP32">
					<dim>48</dim>
					<dim>1</dim>
					<dim>1</dim>
					<dim>1</dim>
				</port>
			</output>
		</layer>
		<layer id="303" name="/backbone/stage2/stage2.1/blocks/blocks.1/conv2/conv/Conv/WithoutBiases/fq_weights_1" type="Multiply" version="opset1">
			<data auto_broadcast="numpy" />
			<input>
				<port id="0" precision="FP32">
					<dim>48</dim>
					<dim>48</dim>
					<dim>3</dim>
					<dim>3</dim>
				</port>
				<port id="1" precision="FP32">
					<dim>48</dim>
					<dim>1</dim>
					<dim>1</dim>
					<dim>1</dim>
				</port>
			</input>
			<output>
				<port id="2" precision="FP32">
					<dim>48</dim>
					<dim>48</dim>
					<dim>3</dim>
					<dim>3</dim>
				</port>
			</output>
		</layer>
		<layer id="304" name="/backbone/stage2/stage2.1/blocks/blocks.1/conv2/conv/Conv/WithoutBiases" type="Convolution" version="opset1">
			<data strides="1, 1" dilations="1, 1" pads_begin="1, 1" pads_end="1, 1" auto_pad="explicit" />
			<input>
				<port id="0" precision="FP32">
					<dim>-1</dim>
					<dim>48</dim>
					<dim>52</dim>
					<dim>-1</dim>
				</port>
				<port id="1" precision="FP32">
					<dim>48</dim>
					<dim>48</dim>
					<dim>3</dim>
					<dim>3</dim>
				</port>
			</input>
			<output>
				<port id="2" precision="FP32">
					<dim>-1</dim>
					<dim>48</dim>
					<dim>52</dim>
					<dim>-1</dim>
				</port>
			</output>
		</layer>
		<layer id="305" name="Reshape_490_compressed" type="Const" version="opset1">
			<data element_type="f16" shape="1, 48, 1, 1" offset="117812" size="96" />
			<output>
				<port id="0" precision="FP16">
					<dim>1</dim>
					<dim>48</dim>
					<dim>1</dim>
					<dim>1</dim>
				</port>
			</output>
		</layer>
		<layer id="306" name="Reshape_490" type="Convert" version="opset1">
			<data destination_type="f32" />
			<rt_info>
				<attribute name="decompression" version="0" />
			</rt_info>
			<input>
				<port id="0" precision="FP16">
					<dim>1</dim>
					<dim>48</dim>
					<dim>1</dim>
					<dim>1</dim>
				</port>
			</input>
			<output>
				<port id="1" precision="FP32">
					<dim>1</dim>
					<dim>48</dim>
					<dim>1</dim>
					<dim>1</dim>
				</port>
			</output>
		</layer>
		<layer id="307" name="/backbone/stage2/stage2.1/blocks/blocks.1/conv2/conv/Conv" type="Add" version="opset1">
			<data auto_broadcast="numpy" />
			<input>
				<port id="0" precision="FP32">
					<dim>-1</dim>
					<dim>48</dim>
					<dim>52</dim>
					<dim>-1</dim>
				</port>
				<port id="1" precision="FP32">
					<dim>1</dim>
					<dim>48</dim>
					<dim>1</dim>
					<dim>1</dim>
				</port>
			</input>
			<output>
				<port id="2" precision="FP32" names="/backbone/stage2/stage2.1/blocks/blocks.1/conv2/conv/Conv_output_0">
					<dim>-1</dim>
					<dim>48</dim>
					<dim>52</dim>
					<dim>-1</dim>
				</port>
			</output>
		</layer>
		<layer id="308" name="/backbone/stage2/stage2.1/blocks/blocks.1/conv2/activate/Mul" type="Swish" version="opset4">
			<input>
				<port id="0" precision="FP32">
					<dim>-1</dim>
					<dim>48</dim>
					<dim>52</dim>
					<dim>-1</dim>
				</port>
			</input>
			<output>
				<port id="1" precision="FP32" names="/backbone/stage2/stage2.1/blocks/blocks.1/conv2/activate/Mul_output_0">
					<dim>-1</dim>
					<dim>48</dim>
					<dim>52</dim>
					<dim>-1</dim>
				</port>
			</output>
		</layer>
		<layer id="309" name="Constant_64052_compressed" type="Const" version="opset1">
			<data element_type="f16" shape="" offset="117908" size="2" />
			<output>
				<port id="0" precision="FP16" />
			</output>
		</layer>
		<layer id="310" name="Constant_64052" type="Convert" version="opset1">
			<data destination_type="f32" />
			<rt_info>
				<attribute name="decompression" version="0" />
			</rt_info>
			<input>
				<port id="0" precision="FP16" />
			</input>
			<output>
				<port id="1" precision="FP32" />
			</output>
		</layer>
		<layer id="311" name="Constant_64053_compressed" type="Const" version="opset1">
			<data element_type="f16" shape="" offset="117910" size="2" />
			<output>
				<port id="0" precision="FP16" />
			</output>
		</layer>
		<layer id="312" name="Constant_64053" type="Convert" version="opset1">
			<data destination_type="f32" />
			<rt_info>
				<attribute name="decompression" version="0" />
			</rt_info>
			<input>
				<port id="0" precision="FP16" />
			</input>
			<output>
				<port id="1" precision="FP32" />
			</output>
		</layer>
		<layer id="313" name="Constant_64054_compressed" type="Const" version="opset1">
			<data element_type="f16" shape="" offset="117908" size="2" />
			<output>
				<port id="0" precision="FP16" />
			</output>
		</layer>
		<layer id="314" name="Constant_64054" type="Convert" version="opset1">
			<data destination_type="f32" />
			<rt_info>
				<attribute name="decompression" version="0" />
			</rt_info>
			<input>
				<port id="0" precision="FP16" />
			</input>
			<output>
				<port id="1" precision="FP32" />
			</output>
		</layer>
		<layer id="315" name="Constant_64055_compressed" type="Const" version="opset1">
			<data element_type="f16" shape="" offset="117910" size="2" />
			<output>
				<port id="0" precision="FP16" />
			</output>
		</layer>
		<layer id="316" name="Constant_64055" type="Convert" version="opset1">
			<data destination_type="f32" />
			<rt_info>
				<attribute name="decompression" version="0" />
			</rt_info>
			<input>
				<port id="0" precision="FP16" />
			</input>
			<output>
				<port id="1" precision="FP32" />
			</output>
		</layer>
		<layer id="317" name="/backbone/stage2/stage2.1/blocks/blocks.1/conv2/activate/Mul/fq_output_0" type="FakeQuantize" version="opset1">
			<data levels="256" auto_broadcast="numpy" />
			<input>
				<port id="0" precision="FP32">
					<dim>-1</dim>
					<dim>48</dim>
					<dim>52</dim>
					<dim>-1</dim>
				</port>
				<port id="1" precision="FP32" />
				<port id="2" precision="FP32" />
				<port id="3" precision="FP32" />
				<port id="4" precision="FP32" />
			</input>
			<output>
				<port id="5" precision="FP32">
					<dim>-1</dim>
					<dim>48</dim>
					<dim>52</dim>
					<dim>-1</dim>
				</port>
			</output>
		</layer>
		<layer id="318" name="/backbone/stage2/stage2.1/blocks/blocks.1/Add" type="Add" version="opset1">
			<data auto_broadcast="numpy" />
			<input>
				<port id="0" precision="FP32">
					<dim>-1</dim>
					<dim>48</dim>
					<dim>52</dim>
					<dim>-1</dim>
				</port>
				<port id="1" precision="FP32">
					<dim>-1</dim>
					<dim>48</dim>
					<dim>52</dim>
					<dim>-1</dim>
				</port>
			</input>
			<output>
				<port id="2" precision="FP32" names="/backbone/stage2/stage2.1/blocks/blocks.1/Add_output_0">
					<dim>-1</dim>
					<dim>48</dim>
					<dim>52</dim>
					<dim>-1</dim>
				</port>
			</output>
		</layer>
		<layer id="319" name="Constant_64057_compressed" type="Const" version="opset1">
			<data element_type="f16" shape="" offset="117912" size="2" />
			<output>
				<port id="0" precision="FP16" />
			</output>
		</layer>
		<layer id="320" name="Constant_64057" type="Convert" version="opset1">
			<data destination_type="f32" />
			<rt_info>
				<attribute name="decompression" version="0" />
			</rt_info>
			<input>
				<port id="0" precision="FP16" />
			</input>
			<output>
				<port id="1" precision="FP32" />
			</output>
		</layer>
		<layer id="321" name="Constant_64058_compressed" type="Const" version="opset1">
			<data element_type="f16" shape="" offset="117914" size="2" />
			<output>
				<port id="0" precision="FP16" />
			</output>
		</layer>
		<layer id="322" name="Constant_64058" type="Convert" version="opset1">
			<data destination_type="f32" />
			<rt_info>
				<attribute name="decompression" version="0" />
			</rt_info>
			<input>
				<port id="0" precision="FP16" />
			</input>
			<output>
				<port id="1" precision="FP32" />
			</output>
		</layer>
		<layer id="323" name="Constant_64059_compressed" type="Const" version="opset1">
			<data element_type="f16" shape="" offset="117912" size="2" />
			<output>
				<port id="0" precision="FP16" />
			</output>
		</layer>
		<layer id="324" name="Constant_64059" type="Convert" version="opset1">
			<data destination_type="f32" />
			<rt_info>
				<attribute name="decompression" version="0" />
			</rt_info>
			<input>
				<port id="0" precision="FP16" />
			</input>
			<output>
				<port id="1" precision="FP32" />
			</output>
		</layer>
		<layer id="325" name="Constant_64060_compressed" type="Const" version="opset1">
			<data element_type="f16" shape="" offset="117914" size="2" />
			<output>
				<port id="0" precision="FP16" />
			</output>
		</layer>
		<layer id="326" name="Constant_64060" type="Convert" version="opset1">
			<data destination_type="f32" />
			<rt_info>
				<attribute name="decompression" version="0" />
			</rt_info>
			<input>
				<port id="0" precision="FP16" />
			</input>
			<output>
				<port id="1" precision="FP32" />
			</output>
		</layer>
		<layer id="327" name="/backbone/stage2/stage2.1/blocks/blocks.1/Add/fq_output_0" type="FakeQuantize" version="opset1">
			<data levels="256" auto_broadcast="numpy" />
			<input>
				<port id="0" precision="FP32">
					<dim>-1</dim>
					<dim>48</dim>
					<dim>52</dim>
					<dim>-1</dim>
				</port>
				<port id="1" precision="FP32" />
				<port id="2" precision="FP32" />
				<port id="3" precision="FP32" />
				<port id="4" precision="FP32" />
			</input>
			<output>
				<port id="5" precision="FP32">
					<dim>-1</dim>
					<dim>48</dim>
					<dim>52</dim>
					<dim>-1</dim>
				</port>
			</output>
		</layer>
		<layer id="328" name="Constant_492555" type="Const" version="opset1">
			<data element_type="i8" shape="48, 48, 1, 1" offset="117916" size="2304" />
			<output>
				<port id="0" precision="I8">
					<dim>48</dim>
					<dim>48</dim>
					<dim>1</dim>
					<dim>1</dim>
				</port>
			</output>
		</layer>
		<layer id="329" name="Convert_492556" type="Convert" version="opset1">
			<data destination_type="f32" />
			<input>
				<port id="0" precision="I8">
					<dim>48</dim>
					<dim>48</dim>
					<dim>1</dim>
					<dim>1</dim>
				</port>
			</input>
			<output>
				<port id="1" precision="FP32">
					<dim>48</dim>
					<dim>48</dim>
					<dim>1</dim>
					<dim>1</dim>
				</port>
			</output>
		</layer>
		<layer id="330" name="Constant_492557_compressed" type="Const" version="opset1">
			<data element_type="f16" shape="48, 1, 1, 1" offset="120220" size="96" />
			<output>
				<port id="0" precision="FP16">
					<dim>48</dim>
					<dim>1</dim>
					<dim>1</dim>
					<dim>1</dim>
				</port>
			</output>
		</layer>
		<layer id="331" name="Constant_492557" type="Convert" version="opset1">
			<data destination_type="f32" />
			<rt_info>
				<attribute name="decompression" version="0" />
			</rt_info>
			<input>
				<port id="0" precision="FP16">
					<dim>48</dim>
					<dim>1</dim>
					<dim>1</dim>
					<dim>1</dim>
				</port>
			</input>
			<output>
				<port id="1" precision="FP32">
					<dim>48</dim>
					<dim>1</dim>
					<dim>1</dim>
					<dim>1</dim>
				</port>
			</output>
		</layer>
		<layer id="332" name="/backbone/stage2/stage2.1/blocks/blocks.2/conv1/conv/Conv/WithoutBiases/fq_weights_1" type="Multiply" version="opset1">
			<data auto_broadcast="numpy" />
			<input>
				<port id="0" precision="FP32">
					<dim>48</dim>
					<dim>48</dim>
					<dim>1</dim>
					<dim>1</dim>
				</port>
				<port id="1" precision="FP32">
					<dim>48</dim>
					<dim>1</dim>
					<dim>1</dim>
					<dim>1</dim>
				</port>
			</input>
			<output>
				<port id="2" precision="FP32">
					<dim>48</dim>
					<dim>48</dim>
					<dim>1</dim>
					<dim>1</dim>
				</port>
			</output>
		</layer>
		<layer id="333" name="/backbone/stage2/stage2.1/blocks/blocks.2/conv1/conv/Conv/WithoutBiases" type="Convolution" version="opset1">
			<data strides="1, 1" dilations="1, 1" pads_begin="0, 0" pads_end="0, 0" auto_pad="explicit" />
			<input>
				<port id="0" precision="FP32">
					<dim>-1</dim>
					<dim>48</dim>
					<dim>52</dim>
					<dim>-1</dim>
				</port>
				<port id="1" precision="FP32">
					<dim>48</dim>
					<dim>48</dim>
					<dim>1</dim>
					<dim>1</dim>
				</port>
			</input>
			<output>
				<port id="2" precision="FP32">
					<dim>-1</dim>
					<dim>48</dim>
					<dim>52</dim>
					<dim>-1</dim>
				</port>
			</output>
		</layer>
		<layer id="334" name="Reshape_509_compressed" type="Const" version="opset1">
			<data element_type="f16" shape="1, 48, 1, 1" offset="120316" size="96" />
			<output>
				<port id="0" precision="FP16">
					<dim>1</dim>
					<dim>48</dim>
					<dim>1</dim>
					<dim>1</dim>
				</port>
			</output>
		</layer>
		<layer id="335" name="Reshape_509" type="Convert" version="opset1">
			<data destination_type="f32" />
			<rt_info>
				<attribute name="decompression" version="0" />
			</rt_info>
			<input>
				<port id="0" precision="FP16">
					<dim>1</dim>
					<dim>48</dim>
					<dim>1</dim>
					<dim>1</dim>
				</port>
			</input>
			<output>
				<port id="1" precision="FP32">
					<dim>1</dim>
					<dim>48</dim>
					<dim>1</dim>
					<dim>1</dim>
				</port>
			</output>
		</layer>
		<layer id="336" name="/backbone/stage2/stage2.1/blocks/blocks.2/conv1/conv/Conv" type="Add" version="opset1">
			<data auto_broadcast="numpy" />
			<input>
				<port id="0" precision="FP32">
					<dim>-1</dim>
					<dim>48</dim>
					<dim>52</dim>
					<dim>-1</dim>
				</port>
				<port id="1" precision="FP32">
					<dim>1</dim>
					<dim>48</dim>
					<dim>1</dim>
					<dim>1</dim>
				</port>
			</input>
			<output>
				<port id="2" precision="FP32" names="/backbone/stage2/stage2.1/blocks/blocks.2/conv1/conv/Conv_output_0">
					<dim>-1</dim>
					<dim>48</dim>
					<dim>52</dim>
					<dim>-1</dim>
				</port>
			</output>
		</layer>
		<layer id="337" name="/backbone/stage2/stage2.1/blocks/blocks.2/conv1/activate/Mul" type="Swish" version="opset4">
			<input>
				<port id="0" precision="FP32">
					<dim>-1</dim>
					<dim>48</dim>
					<dim>52</dim>
					<dim>-1</dim>
				</port>
			</input>
			<output>
				<port id="1" precision="FP32" names="/backbone/stage2/stage2.1/blocks/blocks.2/conv1/activate/Mul_output_0">
					<dim>-1</dim>
					<dim>48</dim>
					<dim>52</dim>
					<dim>-1</dim>
				</port>
			</output>
		</layer>
		<layer id="338" name="Constant_64067_compressed" type="Const" version="opset1">
			<data element_type="f16" shape="" offset="120412" size="2" />
			<output>
				<port id="0" precision="FP16" />
			</output>
		</layer>
		<layer id="339" name="Constant_64067" type="Convert" version="opset1">
			<data destination_type="f32" />
			<rt_info>
				<attribute name="decompression" version="0" />
			</rt_info>
			<input>
				<port id="0" precision="FP16" />
			</input>
			<output>
				<port id="1" precision="FP32" />
			</output>
		</layer>
		<layer id="340" name="Constant_64068_compressed" type="Const" version="opset1">
			<data element_type="f16" shape="" offset="120414" size="2" />
			<output>
				<port id="0" precision="FP16" />
			</output>
		</layer>
		<layer id="341" name="Constant_64068" type="Convert" version="opset1">
			<data destination_type="f32" />
			<rt_info>
				<attribute name="decompression" version="0" />
			</rt_info>
			<input>
				<port id="0" precision="FP16" />
			</input>
			<output>
				<port id="1" precision="FP32" />
			</output>
		</layer>
		<layer id="342" name="Constant_64069_compressed" type="Const" version="opset1">
			<data element_type="f16" shape="" offset="120412" size="2" />
			<output>
				<port id="0" precision="FP16" />
			</output>
		</layer>
		<layer id="343" name="Constant_64069" type="Convert" version="opset1">
			<data destination_type="f32" />
			<rt_info>
				<attribute name="decompression" version="0" />
			</rt_info>
			<input>
				<port id="0" precision="FP16" />
			</input>
			<output>
				<port id="1" precision="FP32" />
			</output>
		</layer>
		<layer id="344" name="Constant_64070_compressed" type="Const" version="opset1">
			<data element_type="f16" shape="" offset="120414" size="2" />
			<output>
				<port id="0" precision="FP16" />
			</output>
		</layer>
		<layer id="345" name="Constant_64070" type="Convert" version="opset1">
			<data destination_type="f32" />
			<rt_info>
				<attribute name="decompression" version="0" />
			</rt_info>
			<input>
				<port id="0" precision="FP16" />
			</input>
			<output>
				<port id="1" precision="FP32" />
			</output>
		</layer>
		<layer id="346" name="/backbone/stage2/stage2.1/blocks/blocks.2/conv1/activate/Mul/fq_output_0" type="FakeQuantize" version="opset1">
			<data levels="256" auto_broadcast="numpy" />
			<input>
				<port id="0" precision="FP32">
					<dim>-1</dim>
					<dim>48</dim>
					<dim>52</dim>
					<dim>-1</dim>
				</port>
				<port id="1" precision="FP32" />
				<port id="2" precision="FP32" />
				<port id="3" precision="FP32" />
				<port id="4" precision="FP32" />
			</input>
			<output>
				<port id="5" precision="FP32">
					<dim>-1</dim>
					<dim>48</dim>
					<dim>52</dim>
					<dim>-1</dim>
				</port>
			</output>
		</layer>
		<layer id="347" name="Constant_492559" type="Const" version="opset1">
			<data element_type="i8" shape="48, 48, 3, 3" offset="120416" size="20736" />
			<output>
				<port id="0" precision="I8">
					<dim>48</dim>
					<dim>48</dim>
					<dim>3</dim>
					<dim>3</dim>
				</port>
			</output>
		</layer>
		<layer id="348" name="Convert_492560" type="Convert" version="opset1">
			<data destination_type="f32" />
			<input>
				<port id="0" precision="I8">
					<dim>48</dim>
					<dim>48</dim>
					<dim>3</dim>
					<dim>3</dim>
				</port>
			</input>
			<output>
				<port id="1" precision="FP32">
					<dim>48</dim>
					<dim>48</dim>
					<dim>3</dim>
					<dim>3</dim>
				</port>
			</output>
		</layer>
		<layer id="349" name="Constant_492561_compressed" type="Const" version="opset1">
			<data element_type="f16" shape="48, 1, 1, 1" offset="141152" size="96" />
			<output>
				<port id="0" precision="FP16">
					<dim>48</dim>
					<dim>1</dim>
					<dim>1</dim>
					<dim>1</dim>
				</port>
			</output>
		</layer>
		<layer id="350" name="Constant_492561" type="Convert" version="opset1">
			<data destination_type="f32" />
			<rt_info>
				<attribute name="decompression" version="0" />
			</rt_info>
			<input>
				<port id="0" precision="FP16">
					<dim>48</dim>
					<dim>1</dim>
					<dim>1</dim>
					<dim>1</dim>
				</port>
			</input>
			<output>
				<port id="1" precision="FP32">
					<dim>48</dim>
					<dim>1</dim>
					<dim>1</dim>
					<dim>1</dim>
				</port>
			</output>
		</layer>
		<layer id="351" name="/backbone/stage2/stage2.1/blocks/blocks.2/conv2/conv/Conv/WithoutBiases/fq_weights_1" type="Multiply" version="opset1">
			<data auto_broadcast="numpy" />
			<input>
				<port id="0" precision="FP32">
					<dim>48</dim>
					<dim>48</dim>
					<dim>3</dim>
					<dim>3</dim>
				</port>
				<port id="1" precision="FP32">
					<dim>48</dim>
					<dim>1</dim>
					<dim>1</dim>
					<dim>1</dim>
				</port>
			</input>
			<output>
				<port id="2" precision="FP32">
					<dim>48</dim>
					<dim>48</dim>
					<dim>3</dim>
					<dim>3</dim>
				</port>
			</output>
		</layer>
		<layer id="352" name="/backbone/stage2/stage2.1/blocks/blocks.2/conv2/conv/Conv/WithoutBiases" type="Convolution" version="opset1">
			<data strides="1, 1" dilations="1, 1" pads_begin="1, 1" pads_end="1, 1" auto_pad="explicit" />
			<input>
				<port id="0" precision="FP32">
					<dim>-1</dim>
					<dim>48</dim>
					<dim>52</dim>
					<dim>-1</dim>
				</port>
				<port id="1" precision="FP32">
					<dim>48</dim>
					<dim>48</dim>
					<dim>3</dim>
					<dim>3</dim>
				</port>
			</input>
			<output>
				<port id="2" precision="FP32">
					<dim>-1</dim>
					<dim>48</dim>
					<dim>52</dim>
					<dim>-1</dim>
				</port>
			</output>
		</layer>
		<layer id="353" name="Reshape_527_compressed" type="Const" version="opset1">
			<data element_type="f16" shape="1, 48, 1, 1" offset="141248" size="96" />
			<output>
				<port id="0" precision="FP16">
					<dim>1</dim>
					<dim>48</dim>
					<dim>1</dim>
					<dim>1</dim>
				</port>
			</output>
		</layer>
		<layer id="354" name="Reshape_527" type="Convert" version="opset1">
			<data destination_type="f32" />
			<rt_info>
				<attribute name="decompression" version="0" />
			</rt_info>
			<input>
				<port id="0" precision="FP16">
					<dim>1</dim>
					<dim>48</dim>
					<dim>1</dim>
					<dim>1</dim>
				</port>
			</input>
			<output>
				<port id="1" precision="FP32">
					<dim>1</dim>
					<dim>48</dim>
					<dim>1</dim>
					<dim>1</dim>
				</port>
			</output>
		</layer>
		<layer id="355" name="/backbone/stage2/stage2.1/blocks/blocks.2/conv2/conv/Conv" type="Add" version="opset1">
			<data auto_broadcast="numpy" />
			<input>
				<port id="0" precision="FP32">
					<dim>-1</dim>
					<dim>48</dim>
					<dim>52</dim>
					<dim>-1</dim>
				</port>
				<port id="1" precision="FP32">
					<dim>1</dim>
					<dim>48</dim>
					<dim>1</dim>
					<dim>1</dim>
				</port>
			</input>
			<output>
				<port id="2" precision="FP32" names="/backbone/stage2/stage2.1/blocks/blocks.2/conv2/conv/Conv_output_0">
					<dim>-1</dim>
					<dim>48</dim>
					<dim>52</dim>
					<dim>-1</dim>
				</port>
			</output>
		</layer>
		<layer id="356" name="/backbone/stage2/stage2.1/blocks/blocks.2/conv2/activate/Mul" type="Swish" version="opset4">
			<input>
				<port id="0" precision="FP32">
					<dim>-1</dim>
					<dim>48</dim>
					<dim>52</dim>
					<dim>-1</dim>
				</port>
			</input>
			<output>
				<port id="1" precision="FP32" names="/backbone/stage2/stage2.1/blocks/blocks.2/conv2/activate/Mul_output_0">
					<dim>-1</dim>
					<dim>48</dim>
					<dim>52</dim>
					<dim>-1</dim>
				</port>
			</output>
		</layer>
		<layer id="357" name="Constant_64077_compressed" type="Const" version="opset1">
			<data element_type="f16" shape="" offset="141344" size="2" />
			<output>
				<port id="0" precision="FP16" />
			</output>
		</layer>
		<layer id="358" name="Constant_64077" type="Convert" version="opset1">
			<data destination_type="f32" />
			<rt_info>
				<attribute name="decompression" version="0" />
			</rt_info>
			<input>
				<port id="0" precision="FP16" />
			</input>
			<output>
				<port id="1" precision="FP32" />
			</output>
		</layer>
		<layer id="359" name="Constant_64078_compressed" type="Const" version="opset1">
			<data element_type="f16" shape="" offset="141346" size="2" />
			<output>
				<port id="0" precision="FP16" />
			</output>
		</layer>
		<layer id="360" name="Constant_64078" type="Convert" version="opset1">
			<data destination_type="f32" />
			<rt_info>
				<attribute name="decompression" version="0" />
			</rt_info>
			<input>
				<port id="0" precision="FP16" />
			</input>
			<output>
				<port id="1" precision="FP32" />
			</output>
		</layer>
		<layer id="361" name="Constant_64079_compressed" type="Const" version="opset1">
			<data element_type="f16" shape="" offset="141344" size="2" />
			<output>
				<port id="0" precision="FP16" />
			</output>
		</layer>
		<layer id="362" name="Constant_64079" type="Convert" version="opset1">
			<data destination_type="f32" />
			<rt_info>
				<attribute name="decompression" version="0" />
			</rt_info>
			<input>
				<port id="0" precision="FP16" />
			</input>
			<output>
				<port id="1" precision="FP32" />
			</output>
		</layer>
		<layer id="363" name="Constant_64080_compressed" type="Const" version="opset1">
			<data element_type="f16" shape="" offset="141346" size="2" />
			<output>
				<port id="0" precision="FP16" />
			</output>
		</layer>
		<layer id="364" name="Constant_64080" type="Convert" version="opset1">
			<data destination_type="f32" />
			<rt_info>
				<attribute name="decompression" version="0" />
			</rt_info>
			<input>
				<port id="0" precision="FP16" />
			</input>
			<output>
				<port id="1" precision="FP32" />
			</output>
		</layer>
		<layer id="365" name="/backbone/stage2/stage2.1/blocks/blocks.2/conv2/activate/Mul/fq_output_0" type="FakeQuantize" version="opset1">
			<data levels="256" auto_broadcast="numpy" />
			<input>
				<port id="0" precision="FP32">
					<dim>-1</dim>
					<dim>48</dim>
					<dim>52</dim>
					<dim>-1</dim>
				</port>
				<port id="1" precision="FP32" />
				<port id="2" precision="FP32" />
				<port id="3" precision="FP32" />
				<port id="4" precision="FP32" />
			</input>
			<output>
				<port id="5" precision="FP32">
					<dim>-1</dim>
					<dim>48</dim>
					<dim>52</dim>
					<dim>-1</dim>
				</port>
			</output>
		</layer>
		<layer id="366" name="/backbone/stage2/stage2.1/blocks/blocks.2/Add" type="Add" version="opset1">
			<data auto_broadcast="numpy" />
			<input>
				<port id="0" precision="FP32">
					<dim>-1</dim>
					<dim>48</dim>
					<dim>52</dim>
					<dim>-1</dim>
				</port>
				<port id="1" precision="FP32">
					<dim>-1</dim>
					<dim>48</dim>
					<dim>52</dim>
					<dim>-1</dim>
				</port>
			</input>
			<output>
				<port id="2" precision="FP32" names="/backbone/stage2/stage2.1/blocks/blocks.2/Add_output_0">
					<dim>-1</dim>
					<dim>48</dim>
					<dim>52</dim>
					<dim>-1</dim>
				</port>
			</output>
		</layer>
		<layer id="367" name="Constant_63802_compressed" type="Const" version="opset1">
			<data element_type="f16" shape="" offset="141348" size="2" />
			<output>
				<port id="0" precision="FP16" />
			</output>
		</layer>
		<layer id="368" name="Constant_63802" type="Convert" version="opset1">
			<data destination_type="f32" />
			<rt_info>
				<attribute name="decompression" version="0" />
			</rt_info>
			<input>
				<port id="0" precision="FP16" />
			</input>
			<output>
				<port id="1" precision="FP32" />
			</output>
		</layer>
		<layer id="369" name="Constant_63803_compressed" type="Const" version="opset1">
			<data element_type="f16" shape="" offset="141350" size="2" />
			<output>
				<port id="0" precision="FP16" />
			</output>
		</layer>
		<layer id="370" name="Constant_63803" type="Convert" version="opset1">
			<data destination_type="f32" />
			<rt_info>
				<attribute name="decompression" version="0" />
			</rt_info>
			<input>
				<port id="0" precision="FP16" />
			</input>
			<output>
				<port id="1" precision="FP32" />
			</output>
		</layer>
		<layer id="371" name="Constant_63804_compressed" type="Const" version="opset1">
			<data element_type="f16" shape="" offset="141348" size="2" />
			<output>
				<port id="0" precision="FP16" />
			</output>
		</layer>
		<layer id="372" name="Constant_63804" type="Convert" version="opset1">
			<data destination_type="f32" />
			<rt_info>
				<attribute name="decompression" version="0" />
			</rt_info>
			<input>
				<port id="0" precision="FP16" />
			</input>
			<output>
				<port id="1" precision="FP32" />
			</output>
		</layer>
		<layer id="373" name="Constant_63805_compressed" type="Const" version="opset1">
			<data element_type="f16" shape="" offset="141350" size="2" />
			<output>
				<port id="0" precision="FP16" />
			</output>
		</layer>
		<layer id="374" name="Constant_63805" type="Convert" version="opset1">
			<data destination_type="f32" />
			<rt_info>
				<attribute name="decompression" version="0" />
			</rt_info>
			<input>
				<port id="0" precision="FP16" />
			</input>
			<output>
				<port id="1" precision="FP32" />
			</output>
		</layer>
		<layer id="375" name="/backbone/stage2/stage2.1/blocks/blocks.2/Add/fq_output_0" type="FakeQuantize" version="opset1">
			<data levels="256" auto_broadcast="numpy" />
			<input>
				<port id="0" precision="FP32">
					<dim>-1</dim>
					<dim>48</dim>
					<dim>52</dim>
					<dim>-1</dim>
				</port>
				<port id="1" precision="FP32" />
				<port id="2" precision="FP32" />
				<port id="3" precision="FP32" />
				<port id="4" precision="FP32" />
			</input>
			<output>
				<port id="5" precision="FP32">
					<dim>-1</dim>
					<dim>48</dim>
					<dim>52</dim>
					<dim>-1</dim>
				</port>
			</output>
		</layer>
		<layer id="376" name="Constant_492563" type="Const" version="opset1">
			<data element_type="i8" shape="48, 96, 1, 1" offset="141352" size="4608" />
			<output>
				<port id="0" precision="I8">
					<dim>48</dim>
					<dim>96</dim>
					<dim>1</dim>
					<dim>1</dim>
				</port>
			</output>
		</layer>
		<layer id="377" name="Convert_492564" type="Convert" version="opset1">
			<data destination_type="f32" />
			<input>
				<port id="0" precision="I8">
					<dim>48</dim>
					<dim>96</dim>
					<dim>1</dim>
					<dim>1</dim>
				</port>
			</input>
			<output>
				<port id="1" precision="FP32">
					<dim>48</dim>
					<dim>96</dim>
					<dim>1</dim>
					<dim>1</dim>
				</port>
			</output>
		</layer>
		<layer id="378" name="Constant_492565_compressed" type="Const" version="opset1">
			<data element_type="f16" shape="48, 1, 1, 1" offset="145960" size="96" />
			<output>
				<port id="0" precision="FP16">
					<dim>48</dim>
					<dim>1</dim>
					<dim>1</dim>
					<dim>1</dim>
				</port>
			</output>
		</layer>
		<layer id="379" name="Constant_492565" type="Convert" version="opset1">
			<data destination_type="f32" />
			<rt_info>
				<attribute name="decompression" version="0" />
			</rt_info>
			<input>
				<port id="0" precision="FP16">
					<dim>48</dim>
					<dim>1</dim>
					<dim>1</dim>
					<dim>1</dim>
				</port>
			</input>
			<output>
				<port id="1" precision="FP32">
					<dim>48</dim>
					<dim>1</dim>
					<dim>1</dim>
					<dim>1</dim>
				</port>
			</output>
		</layer>
		<layer id="380" name="/backbone/stage2/stage2.1/short_conv/conv/Conv/WithoutBiases/fq_weights_1" type="Multiply" version="opset1">
			<data auto_broadcast="numpy" />
			<input>
				<port id="0" precision="FP32">
					<dim>48</dim>
					<dim>96</dim>
					<dim>1</dim>
					<dim>1</dim>
				</port>
				<port id="1" precision="FP32">
					<dim>48</dim>
					<dim>1</dim>
					<dim>1</dim>
					<dim>1</dim>
				</port>
			</input>
			<output>
				<port id="2" precision="FP32">
					<dim>48</dim>
					<dim>96</dim>
					<dim>1</dim>
					<dim>1</dim>
				</port>
			</output>
		</layer>
		<layer id="381" name="/backbone/stage2/stage2.1/short_conv/conv/Conv/WithoutBiases" type="Convolution" version="opset1">
			<data strides="1, 1" dilations="1, 1" pads_begin="0, 0" pads_end="0, 0" auto_pad="explicit" />
			<input>
				<port id="0" precision="FP32">
					<dim>-1</dim>
					<dim>96</dim>
					<dim>52</dim>
					<dim>-1</dim>
				</port>
				<port id="1" precision="FP32">
					<dim>48</dim>
					<dim>96</dim>
					<dim>1</dim>
					<dim>1</dim>
				</port>
			</input>
			<output>
				<port id="2" precision="FP32">
					<dim>-1</dim>
					<dim>48</dim>
					<dim>52</dim>
					<dim>-1</dim>
				</port>
			</output>
		</layer>
		<layer id="382" name="Reshape_399_compressed" type="Const" version="opset1">
			<data element_type="f16" shape="1, 48, 1, 1" offset="146056" size="96" />
			<output>
				<port id="0" precision="FP16">
					<dim>1</dim>
					<dim>48</dim>
					<dim>1</dim>
					<dim>1</dim>
				</port>
			</output>
		</layer>
		<layer id="383" name="Reshape_399" type="Convert" version="opset1">
			<data destination_type="f32" />
			<rt_info>
				<attribute name="decompression" version="0" />
			</rt_info>
			<input>
				<port id="0" precision="FP16">
					<dim>1</dim>
					<dim>48</dim>
					<dim>1</dim>
					<dim>1</dim>
				</port>
			</input>
			<output>
				<port id="1" precision="FP32">
					<dim>1</dim>
					<dim>48</dim>
					<dim>1</dim>
					<dim>1</dim>
				</port>
			</output>
		</layer>
		<layer id="384" name="/backbone/stage2/stage2.1/short_conv/conv/Conv" type="Add" version="opset1">
			<data auto_broadcast="numpy" />
			<input>
				<port id="0" precision="FP32">
					<dim>-1</dim>
					<dim>48</dim>
					<dim>52</dim>
					<dim>-1</dim>
				</port>
				<port id="1" precision="FP32">
					<dim>1</dim>
					<dim>48</dim>
					<dim>1</dim>
					<dim>1</dim>
				</port>
			</input>
			<output>
				<port id="2" precision="FP32" names="/backbone/stage2/stage2.1/short_conv/conv/Conv_output_0">
					<dim>-1</dim>
					<dim>48</dim>
					<dim>52</dim>
					<dim>-1</dim>
				</port>
			</output>
		</layer>
		<layer id="385" name="/backbone/stage2/stage2.1/short_conv/activate/Mul" type="Swish" version="opset4">
			<input>
				<port id="0" precision="FP32">
					<dim>-1</dim>
					<dim>48</dim>
					<dim>52</dim>
					<dim>-1</dim>
				</port>
			</input>
			<output>
				<port id="1" precision="FP32" names="/backbone/stage2/stage2.1/short_conv/activate/Mul_output_0">
					<dim>-1</dim>
					<dim>48</dim>
					<dim>52</dim>
					<dim>-1</dim>
				</port>
			</output>
		</layer>
		<layer id="386" name="Constant_63807_compressed" type="Const" version="opset1">
			<data element_type="f16" shape="" offset="141348" size="2" />
			<output>
				<port id="0" precision="FP16" />
			</output>
		</layer>
		<layer id="387" name="Constant_63807" type="Convert" version="opset1">
…
		<edge from-layer="1584" from-port="2" to-layer="1586" to-port="0" />
		<edge from-layer="1585" from-port="0" to-layer="1586" to-port="1" />
		<edge from-layer="1586" from-port="2" to-layer="1599" to-port="1" />
		<edge from-layer="1587" from-port="0" to-layer="1588" to-port="0" />
		<edge from-layer="1588" from-port="1" to-layer="1590" to-port="0" />
		<edge from-layer="1589" from-port="1" to-layer="1590" to-port="1" />
		<edge from-layer="1590" from-port="2" to-layer="1592" to-port="0" />
		<edge from-layer="1591" from-port="0" to-layer="1592" to-port="1" />
		<edge from-layer="1592" from-port="2" to-layer="1599" to-port="2" />
		<edge from-layer="1593" from-port="0" to-layer="1594" to-port="0" />
		<edge from-layer="1594" from-port="1" to-layer="1596" to-port="0" />
		<edge from-layer="1595" from-port="1" to-layer="1596" to-port="1" />
		<edge from-layer="1596" from-port="2" to-layer="1598" to-port="0" />
		<edge from-layer="1597" from-port="0" to-layer="1598" to-port="1" />
		<edge from-layer="1598" from-port="2" to-layer="1599" to-port="3" />
		<edge from-layer="1599" from-port="4" to-layer="1804" to-port="0" />
		<edge from-layer="1600" from-port="0" to-layer="1653" to-port="0" />
		<edge from-layer="1601" from-port="0" to-layer="1602" to-port="0" />
		<edge from-layer="1602" from-port="1" to-layer="1605" to-port="0" />
		<edge from-layer="1603" from-port="0" to-layer="1604" to-port="0" />
		<edge from-layer="1604" from-port="1" to-layer="1605" to-port="1" />
		<edge from-layer="1605" from-port="2" to-layer="1606" to-port="1" />
		<edge from-layer="1606" from-port="2" to-layer="1609" to-port="0" />
		<edge from-layer="1607" from-port="0" to-layer="1608" to-port="0" />
		<edge from-layer="1608" from-port="1" to-layer="1609" to-port="1" />
		<edge from-layer="1609" from-port="2" to-layer="1610" to-port="0" />
		<edge from-layer="1610" from-port="1" to-layer="1619" to-port="0" />
		<edge from-layer="1611" from-port="0" to-layer="1612" to-port="0" />
		<edge from-layer="1612" from-port="1" to-layer="1619" to-port="1" />
		<edge from-layer="1613" from-port="0" to-layer="1614" to-port="0" />
		<edge from-layer="1614" from-port="1" to-layer="1619" to-port="2" />
		<edge from-layer="1615" from-port="0" to-layer="1616" to-port="0" />
		<edge from-layer="1616" from-port="1" to-layer="1619" to-port="3" />
		<edge from-layer="1617" from-port="0" to-layer="1618" to-port="0" />
		<edge from-layer="1618" from-port="1" to-layer="1619" to-port="4" />
		<edge from-layer="1619" from-port="5" to-layer="1625" to-port="0" />
		<edge from-layer="1620" from-port="0" to-layer="1621" to-port="0" />
		<edge from-layer="1621" from-port="1" to-layer="1624" to-port="0" />
		<edge from-layer="1622" from-port="0" to-layer="1623" to-port="0" />
		<edge from-layer="1623" from-port="1" to-layer="1624" to-port="1" />
		<edge from-layer="1624" from-port="2" to-layer="1625" to-port="1" />
		<edge from-layer="1625" from-port="2" to-layer="1628" to-port="0" />
		<edge from-layer="1626" from-port="0" to-layer="1627" to-port="0" />
		<edge from-layer="1627" from-port="1" to-layer="1628" to-port="1" />
		<edge from-layer="1628" from-port="2" to-layer="1629" to-port="0" />
		<edge from-layer="1629" from-port="1" to-layer="1638" to-port="0" />
		<edge from-layer="1630" from-port="0" to-layer="1631" to-port="0" />
		<edge from-layer="1631" from-port="1" to-layer="1638" to-port="1" />
		<edge from-layer="1632" from-port="0" to-layer="1633" to-port="0" />
		<edge from-layer="1633" from-port="1" to-layer="1638" to-port="2" />
		<edge from-layer="1634" from-port="0" to-layer="1635" to-port="0" />
		<edge from-layer="1635" from-port="1" to-layer="1638" to-port="3" />
		<edge from-layer="1636" from-port="0" to-layer="1637" to-port="0" />
		<edge from-layer="1637" from-port="1" to-layer="1638" to-port="4" />
		<edge from-layer="1638" from-port="5" to-layer="1644" to-port="0" />
		<edge from-layer="1639" from-port="0" to-layer="1640" to-port="0" />
		<edge from-layer="1640" from-port="1" to-layer="1643" to-port="0" />
		<edge from-layer="1641" from-port="0" to-layer="1642" to-port="0" />
		<edge from-layer="1642" from-port="1" to-layer="1643" to-port="1" />
		<edge from-layer="1643" from-port="2" to-layer="1644" to-port="1" />
		<edge from-layer="1644" from-port="2" to-layer="1647" to-port="0" />
		<edge from-layer="1645" from-port="0" to-layer="1646" to-port="0" />
		<edge from-layer="1646" from-port="1" to-layer="1647" to-port="1" />
		<edge from-layer="1647" from-port="2" to-layer="1648" to-port="0" />
		<edge from-layer="1647" from-port="2" to-layer="1867" to-port="0" />
		<edge from-layer="1648" from-port="1" to-layer="1651" to-port="0" />
		<edge from-layer="1648" from-port="1" to-layer="1666" to-port="0" />
		<edge from-layer="1649" from-port="0" to-layer="1651" to-port="1" />
		<edge from-layer="1650" from-port="0" to-layer="1651" to-port="2" />
		<edge from-layer="1651" from-port="3" to-layer="1653" to-port="1" />
		<edge from-layer="1652" from-port="0" to-layer="1653" to-port="2" />
		<edge from-layer="1653" from-port="3" to-layer="1655" to-port="0" />
		<edge from-layer="1654" from-port="0" to-layer="1655" to-port="1" />
		<edge from-layer="1655" from-port="2" to-layer="1656" to-port="0" />
		<edge from-layer="1656" from-port="1" to-layer="1658" to-port="0" />
		<edge from-layer="1657" from-port="0" to-layer="1658" to-port="1" />
		<edge from-layer="1658" from-port="2" to-layer="1660" to-port="0" />
		<edge from-layer="1658" from-port="2" to-layer="1662" to-port="0" />
		<edge from-layer="1659" from-port="0" to-layer="1661" to-port="0" />
		<edge from-layer="1660" from-port="1" to-layer="1661" to-port="1" />
		<edge from-layer="1660" from-port="1" to-layer="1675" to-port="1" />
		<edge from-layer="1661" from-port="2" to-layer="1662" to-port="1" />
		<edge from-layer="1662" from-port="2" to-layer="1676" to-port="0" />
		<edge from-layer="1663" from-port="0" to-layer="1668" to-port="0" />
		<edge from-layer="1664" from-port="0" to-layer="1666" to-port="1" />
		<edge from-layer="1665" from-port="0" to-layer="1666" to-port="2" />
		<edge from-layer="1666" from-port="3" to-layer="1668" to-port="1" />
		<edge from-layer="1667" from-port="0" to-layer="1668" to-port="2" />
		<edge from-layer="1668" from-port="3" to-layer="1670" to-port="0" />
		<edge from-layer="1669" from-port="0" to-layer="1670" to-port="1" />
		<edge from-layer="1670" from-port="2" to-layer="1671" to-port="0" />
		<edge from-layer="1671" from-port="1" to-layer="1673" to-port="0" />
		<edge from-layer="1672" from-port="0" to-layer="1673" to-port="1" />
		<edge from-layer="1673" from-port="2" to-layer="1683" to-port="0" />
		<edge from-layer="1673" from-port="2" to-layer="1674" to-port="0" />
		<edge from-layer="1674" from-port="1" to-layer="1682" to-port="0" />
		<edge from-layer="1674" from-port="1" to-layer="1675" to-port="0" />
		<edge from-layer="1675" from-port="2" to-layer="1684" to-port="1" />
		<edge from-layer="1675" from-port="2" to-layer="1676" to-port="1" />
		<edge from-layer="1676" from-port="2" to-layer="1678" to-port="0" />
		<edge from-layer="1677" from-port="0" to-layer="1678" to-port="1" />
		<edge from-layer="1678" from-port="2" to-layer="1691" to-port="0" />
		<edge from-layer="1678" from-port="2" to-layer="1680" to-port="0" />
		<edge from-layer="1679" from-port="0" to-layer="1680" to-port="1" />
		<edge from-layer="1680" from-port="2" to-layer="1701" to-port="0" />
		<edge from-layer="1681" from-port="0" to-layer="1682" to-port="1" />
		<edge from-layer="1682" from-port="2" to-layer="1683" to-port="1" />
		<edge from-layer="1683" from-port="2" to-layer="1684" to-port="0" />
		<edge from-layer="1684" from-port="2" to-layer="1686" to-port="0" />
		<edge from-layer="1685" from-port="0" to-layer="1686" to-port="1" />
		<edge from-layer="1686" from-port="2" to-layer="1688" to-port="0" />
		<edge from-layer="1686" from-port="2" to-layer="1697" to-port="0" />
		<edge from-layer="1687" from-port="0" to-layer="1688" to-port="1" />
		<edge from-layer="1688" from-port="2" to-layer="1701" to-port="1" />
		<edge from-layer="1689" from-port="0" to-layer="1690" to-port="0" />
		<edge from-layer="1690" from-port="1" to-layer="1692" to-port="0" />
		<edge from-layer="1691" from-port="1" to-layer="1692" to-port="1" />
		<edge from-layer="1692" from-port="2" to-layer="1694" to-port="0" />
		<edge from-layer="1693" from-port="0" to-layer="1694" to-port="1" />
		<edge from-layer="1694" from-port="2" to-layer="1701" to-port="2" />
		<edge from-layer="1695" from-port="0" to-layer="1696" to-port="0" />
		<edge from-layer="1696" from-port="1" to-layer="1698" to-port="0" />
		<edge from-layer="1697" from-port="1" to-layer="1698" to-port="1" />
		<edge from-layer="1698" from-port="2" to-layer="1700" to-port="0" />
		<edge from-layer="1699" from-port="0" to-layer="1700" to-port="1" />
		<edge from-layer="1700" from-port="2" to-layer="1701" to-port="3" />
		<edge from-layer="1701" from-port="4" to-layer="1804" to-port="1" />
		<edge from-layer="1702" from-port="0" to-layer="1755" to-port="0" />
		<edge from-layer="1703" from-port="0" to-layer="1704" to-port="0" />
		<edge from-layer="1704" from-port="1" to-layer="1707" to-port="0" />
		<edge from-layer="1705" from-port="0" to-layer="1706" to-port="0" />
		<edge from-layer="1706" from-port="1" to-layer="1707" to-port="1" />
		<edge from-layer="1707" from-port="2" to-layer="1708" to-port="1" />
		<edge from-layer="1708" from-port="2" to-layer="1711" to-port="0" />
		<edge from-layer="1709" from-port="0" to-layer="1710" to-port="0" />
		<edge from-layer="1710" from-port="1" to-layer="1711" to-port="1" />
		<edge from-layer="1711" from-port="2" to-layer="1712" to-port="0" />
		<edge from-layer="1712" from-port="1" to-layer="1721" to-port="0" />
		<edge from-layer="1713" from-port="0" to-layer="1714" to-port="0" />
		<edge from-layer="1714" from-port="1" to-layer="1721" to-port="1" />
		<edge from-layer="1715" from-port="0" to-layer="1716" to-port="0" />
		<edge from-layer="1716" from-port="1" to-layer="1721" to-port="2" />
		<edge from-layer="1717" from-port="0" to-layer="1718" to-port="0" />
		<edge from-layer="1718" from-port="1" to-layer="1721" to-port="3" />
		<edge from-layer="1719" from-port="0" to-layer="1720" to-port="0" />
		<edge from-layer="1720" from-port="1" to-layer="1721" to-port="4" />
		<edge from-layer="1721" from-port="5" to-layer="1727" to-port="0" />
		<edge from-layer="1722" from-port="0" to-layer="1723" to-port="0" />
		<edge from-layer="1723" from-port="1" to-layer="1726" to-port="0" />
		<edge from-layer="1724" from-port="0" to-layer="1725" to-port="0" />
		<edge from-layer="1725" from-port="1" to-layer="1726" to-port="1" />
		<edge from-layer="1726" from-port="2" to-layer="1727" to-port="1" />
		<edge from-layer="1727" from-port="2" to-layer="1730" to-port="0" />
		<edge from-layer="1728" from-port="0" to-layer="1729" to-port="0" />
		<edge from-layer="1729" from-port="1" to-layer="1730" to-port="1" />
		<edge from-layer="1730" from-port="2" to-layer="1731" to-port="0" />
		<edge from-layer="1731" from-port="1" to-layer="1740" to-port="0" />
		<edge from-layer="1732" from-port="0" to-layer="1733" to-port="0" />
		<edge from-layer="1733" from-port="1" to-layer="1740" to-port="1" />
		<edge from-layer="1734" from-port="0" to-layer="1735" to-port="0" />
		<edge from-layer="1735" from-port="1" to-layer="1740" to-port="2" />
		<edge from-layer="1736" from-port="0" to-layer="1737" to-port="0" />
		<edge from-layer="1737" from-port="1" to-layer="1740" to-port="3" />
		<edge from-layer="1738" from-port="0" to-layer="1739" to-port="0" />
		<edge from-layer="1739" from-port="1" to-layer="1740" to-port="4" />
		<edge from-layer="1740" from-port="5" to-layer="1746" to-port="0" />
		<edge from-layer="1741" from-port="0" to-layer="1742" to-port="0" />
		<edge from-layer="1742" from-port="1" to-layer="1745" to-port="0" />
		<edge from-layer="1743" from-port="0" to-layer="1744" to-port="0" />
		<edge from-layer="1744" from-port="1" to-layer="1745" to-port="1" />
		<edge from-layer="1745" from-port="2" to-layer="1746" to-port="1" />
		<edge from-layer="1746" from-port="2" to-layer="1749" to-port="0" />
		<edge from-layer="1747" from-port="0" to-layer="1748" to-port="0" />
		<edge from-layer="1748" from-port="1" to-layer="1749" to-port="1" />
		<edge from-layer="1749" from-port="2" to-layer="1750" to-port="0" />
		<edge from-layer="1749" from-port="2" to-layer="1870" to-port="0" />
		<edge from-layer="1750" from-port="1" to-layer="1753" to-port="0" />
		<edge from-layer="1750" from-port="1" to-layer="1768" to-port="0" />
		<edge from-layer="1751" from-port="0" to-layer="1753" to-port="1" />
		<edge from-layer="1752" from-port="0" to-layer="1753" to-port="2" />
		<edge from-layer="1753" from-port="3" to-layer="1755" to-port="1" />
		<edge from-layer="1754" from-port="0" to-layer="1755" to-port="2" />
		<edge from-layer="1755" from-port="3" to-layer="1757" to-port="0" />
		<edge from-layer="1756" from-port="0" to-layer="1757" to-port="1" />
		<edge from-layer="1757" from-port="2" to-layer="1758" to-port="0" />
		<edge from-layer="1758" from-port="1" to-layer="1760" to-port="0" />
		<edge from-layer="1759" from-port="0" to-layer="1760" to-port="1" />
		<edge from-layer="1760" from-port="2" to-layer="1764" to-port="0" />
		<edge from-layer="1760" from-port="2" to-layer="1762" to-port="0" />
		<edge from-layer="1761" from-port="0" to-layer="1763" to-port="0" />
		<edge from-layer="1762" from-port="1" to-layer="1777" to-port="1" />
		<edge from-layer="1762" from-port="1" to-layer="1763" to-port="1" />
		<edge from-layer="1763" from-port="2" to-layer="1764" to-port="1" />
		<edge from-layer="1764" from-port="2" to-layer="1778" to-port="0" />
		<edge from-layer="1765" from-port="0" to-layer="1770" to-port="0" />
		<edge from-layer="1766" from-port="0" to-layer="1768" to-port="1" />
		<edge from-layer="1767" from-port="0" to-layer="1768" to-port="2" />
		<edge from-layer="1768" from-port="3" to-layer="1770" to-port="1" />
		<edge from-layer="1769" from-port="0" to-layer="1770" to-port="2" />
		<edge from-layer="1770" from-port="3" to-layer="1772" to-port="0" />
		<edge from-layer="1771" from-port="0" to-layer="1772" to-port="1" />
		<edge from-layer="1772" from-port="2" to-layer="1773" to-port="0" />
		<edge from-layer="1773" from-port="1" to-layer="1775" to-port="0" />
		<edge from-layer="1774" from-port="0" to-layer="1775" to-port="1" />
		<edge from-layer="1775" from-port="2" to-layer="1785" to-port="0" />
		<edge from-layer="1775" from-port="2" to-layer="1776" to-port="0" />
		<edge from-layer="1776" from-port="1" to-layer="1777" to-port="0" />
		<edge from-layer="1776" from-port="1" to-layer="1784" to-port="0" />
		<edge from-layer="1777" from-port="2" to-layer="1778" to-port="1" />
		<edge from-layer="1777" from-port="2" to-layer="1786" to-port="1" />
		<edge from-layer="1778" from-port="2" to-layer="1780" to-port="0" />
		<edge from-layer="1779" from-port="0" to-layer="1780" to-port="1" />
		<edge from-layer="1780" from-port="2" to-layer="1782" to-port="0" />
		<edge from-layer="1780" from-port="2" to-layer="1793" to-port="0" />
		<edge from-layer="1781" from-port="0" to-layer="1782" to-port="1" />
		<edge from-layer="1782" from-port="2" to-layer="1803" to-port="0" />
		<edge from-layer="1783" from-port="0" to-layer="1784" to-port="1" />
		<edge from-layer="1784" from-port="2" to-layer="1785" to-port="1" />
		<edge from-layer="1785" from-port="2" to-layer="1786" to-port="0" />
		<edge from-layer="1786" from-port="2" to-layer="1788" to-port="0" />
		<edge from-layer="1787" from-port="0" to-layer="1788" to-port="1" />
		<edge from-layer="1788" from-port="2" to-layer="1799" to-port="0" />
		<edge from-layer="1788" from-port="2" to-layer="1790" to-port="0" />
		<edge from-layer="1789" from-port="0" to-layer="1790" to-port="1" />
		<edge from-layer="1790" from-port="2" to-layer="1803" to-port="1" />
		<edge from-layer="1791" from-port="0" to-layer="1792" to-port="0" />
		<edge from-layer="1792" from-port="1" to-layer="1794" to-port="0" />
		<edge from-layer="1793" from-port="1" to-layer="1794" to-port="1" />
		<edge from-layer="1794" from-port="2" to-layer="1796" to-port="0" />
		<edge from-layer="1795" from-port="0" to-layer="1796" to-port="1" />
		<edge from-layer="1796" from-port="2" to-layer="1803" to-port="2" />
		<edge from-layer="1797" from-port="0" to-layer="1798" to-port="0" />
		<edge from-layer="1798" from-port="1" to-layer="1800" to-port="0" />
		<edge from-layer="1799" from-port="1" to-layer="1800" to-port="1" />
		<edge from-layer="1800" from-port="2" to-layer="1802" to-port="0" />
		<edge from-layer="1801" from-port="0" to-layer="1802" to-port="1" />
		<edge from-layer="1802" from-port="2" to-layer="1803" to-port="3" />
		<edge from-layer="1803" from-port="4" to-layer="1804" to-port="2" />
		<edge from-layer="1804" from-port="3" to-layer="1808" to-port="0" />
		<edge from-layer="1804" from-port="3" to-layer="1813" to-port="0" />
		<edge from-layer="1805" from-port="0" to-layer="1808" to-port="1" />
		<edge from-layer="1806" from-port="0" to-layer="1808" to-port="2" />
		<edge from-layer="1807" from-port="0" to-layer="1808" to-port="3" />
		<edge from-layer="1808" from-port="4" to-layer="1809" to-port="1" />
		<edge from-layer="1808" from-port="4" to-layer="1823" to-port="1" />
		<edge from-layer="1809" from-port="2" to-layer="1814" to-port="0" />
		<edge from-layer="1810" from-port="0" to-layer="1813" to-port="1" />
		<edge from-layer="1811" from-port="0" to-layer="1813" to-port="2" />
		<edge from-layer="1812" from-port="0" to-layer="1813" to-port="3" />
		<edge from-layer="1813" from-port="4" to-layer="1814" to-port="1" />
		<edge from-layer="1814" from-port="2" to-layer="1817" to-port="0" />
		<edge from-layer="1814" from-port="2" to-layer="1834" to-port="0" />
		<edge from-layer="1815" from-port="0" to-layer="2000" to-port="1" />
		<edge from-layer="1815" from-port="0" to-layer="1817" to-port="1" />
		<edge from-layer="1815" from-port="0" to-layer="1825" to-port="1" />
		<edge from-layer="1816" from-port="0" to-layer="1817" to-port="2" />
		<edge from-layer="1817" from-port="3" to-layer="1843" to-port="0" />
		<edge from-layer="1817" from-port="3" to-layer="1829" to-port="0" />
		<edge from-layer="1818" from-port="0" to-layer="1821" to-port="1" />
		<edge from-layer="1819" from-port="0" to-layer="1821" to-port="2" />
		<edge from-layer="1820" from-port="0" to-layer="1821" to-port="3" />
		<edge from-layer="1821" from-port="4" to-layer="1822" to-port="0" />
		<edge from-layer="1822" from-port="1" to-layer="1823" to-port="0" />
		<edge from-layer="1823" from-port="2" to-layer="1825" to-port="0" />
		<edge from-layer="1823" from-port="2" to-layer="1836" to-port="0" />
		<edge from-layer="1824" from-port="0" to-layer="1825" to-port="2" />
		<edge from-layer="1825" from-port="3" to-layer="1828" to-port="0" />
		<edge from-layer="1826" from-port="0" to-layer="1827" to-port="0" />
		<edge from-layer="1827" from-port="1" to-layer="1828" to-port="1" />
		<edge from-layer="1828" from-port="2" to-layer="1829" to-port="1" />
		<edge from-layer="1828" from-port="2" to-layer="1843" to-port="1" />
		<edge from-layer="1829" from-port="2" to-layer="1831" to-port="0" />
		<edge from-layer="1830" from-port="0" to-layer="1831" to-port="1" />
		<edge from-layer="1831" from-port="2" to-layer="1849" to-port="0" />
		<edge from-layer="1832" from-port="0" to-layer="2008" to-port="1" />
		<edge from-layer="1832" from-port="0" to-layer="1836" to-port="1" />
		<edge from-layer="1832" from-port="0" to-layer="1834" to-port="1" />
		<edge from-layer="1833" from-port="0" to-layer="1834" to-port="2" />
		<edge from-layer="1834" from-port="3" to-layer="1840" to-port="0" />
		<edge from-layer="1834" from-port="3" to-layer="1846" to-port="0" />
		<edge from-layer="1835" from-port="0" to-layer="1836" to-port="2" />
		<edge from-layer="1836" from-port="3" to-layer="1839" to-port="0" />
		<edge from-layer="1837" from-port="0" to-layer="1838" to-port="0" />
		<edge from-layer="1838" from-port="1" to-layer="1839" to-port="1" />
		<edge from-layer="1839" from-port="2" to-layer="1840" to-port="1" />
		<edge from-layer="1839" from-port="2" to-layer="1846" to-port="1" />
		<edge from-layer="1840" from-port="2" to-layer="1842" to-port="0" />
		<edge from-layer="1841" from-port="0" to-layer="1842" to-port="1" />
		<edge from-layer="1842" from-port="2" to-layer="1849" to-port="1" />
		<edge from-layer="1843" from-port="2" to-layer="1845" to-port="0" />
		<edge from-layer="1844" from-port="0" to-layer="1845" to-port="1" />
		<edge from-layer="1845" from-port="2" to-layer="1849" to-port="2" />
		<edge from-layer="1846" from-port="2" to-layer="1848" to-port="0" />
		<edge from-layer="1847" from-port="0" to-layer="1848" to-port="1" />
		<edge from-layer="1848" from-port="2" to-layer="1849" to-port="3" />
		<edge from-layer="1849" from-port="4" to-layer="1859" to-port="0" />
		<edge from-layer="1849" from-port="4" to-layer="1850" to-port="0" />
		<edge from-layer="1850" from-port="1" to-layer="1960" to-port="0" />
		<edge from-layer="1850" from-port="1" to-layer="1854" to-port="0" />
		<edge from-layer="1850" from-port="1" to-layer="1952" to-port="0" />
		<edge from-layer="1851" from-port="0" to-layer="1854" to-port="1" />
		<edge from-layer="1852" from-port="0" to-layer="1854" to-port="2" />
		<edge from-layer="1853" from-port="0" to-layer="1854" to-port="3" />
		<edge from-layer="1854" from-port="4" to-layer="1856" to-port="0" />
		<edge from-layer="1855" from-port="0" to-layer="1856" to-port="1" />
		<edge from-layer="1856" from-port="2" to-layer="1858" to-port="0" />
		<edge from-layer="1857" from-port="0" to-layer="1858" to-port="1" />
		<edge from-layer="1858" from-port="2" to-layer="1859" to-port="1" />
		<edge from-layer="1859" from-port="2" to-layer="1956" to-port="0" />
		<edge from-layer="1860" from-port="0" to-layer="1861" to-port="1" />
		<edge from-layer="1861" from-port="2" to-layer="1865" to-port="0" />
		<edge from-layer="1862" from-port="0" to-layer="1864" to-port="1" />
		<edge from-layer="1863" from-port="0" to-layer="1864" to-port="2" />
		<edge from-layer="1864" from-port="3" to-layer="1868" to-port="1" />
		<edge from-layer="1864" from-port="3" to-layer="1865" to-port="1" />
		<edge from-layer="1864" from-port="3" to-layer="1871" to-port="1" />
		<edge from-layer="1865" from-port="2" to-layer="1872" to-port="0" />
		<edge from-layer="1866" from-port="0" to-layer="1867" to-port="1" />
		<edge from-layer="1867" from-port="2" to-layer="1868" to-port="0" />
		<edge from-layer="1868" from-port="2" to-layer="1872" to-port="1" />
		<edge from-layer="1869" from-port="0" to-layer="1870" to-port="1" />
		<edge from-layer="1870" from-port="2" to-layer="1871" to-port="0" />
		<edge from-layer="1871" from-port="2" to-layer="1872" to-port="2" />
		<edge from-layer="1872" from-port="3" to-layer="1873" to-port="0" />
		<edge from-layer="1873" from-port="1" to-layer="1925" to-port="0" />
		<edge from-layer="1874" from-port="0" to-layer="1875" to-port="0" />
		<edge from-layer="1875" from-port="1" to-layer="1878" to-port="0" />
		<edge from-layer="1876" from-port="0" to-layer="1877" to-port="0" />
		<edge from-layer="1877" from-port="1" to-layer="1878" to-port="1" />
		<edge from-layer="1878" from-port="2" to-layer="1879" to-port="1" />
		<edge from-layer="1879" from-port="2" to-layer="1882" to-port="0" />
		<edge from-layer="1880" from-port="0" to-layer="1881" to-port="0" />
		<edge from-layer="1881" from-port="1" to-layer="1882" to-port="1" />
		<edge from-layer="1882" from-port="2" to-layer="1883" to-port="0" />
		<edge from-layer="1882" from-port="2" to-layer="1887" to-port="0" />
		<edge from-layer="1883" from-port="1" to-layer="1886" to-port="0" />
		<edge from-layer="1884" from-port="0" to-layer="1886" to-port="1" />
		<edge from-layer="1885" from-port="0" to-layer="1886" to-port="2" />
		<edge from-layer="1886" from-port="3" to-layer="1887" to-port="1" />
		<edge from-layer="1887" from-port="2" to-layer="1890" to-port="0" />
		<edge from-layer="1888" from-port="0" to-layer="1889" to-port="1" />
		<edge from-layer="1889" from-port="2" to-layer="1905" to-port="1" />
		<edge from-layer="1889" from-port="2" to-layer="1920" to-port="1" />
		<edge from-layer="1889" from-port="2" to-layer="1890" to-port="1" />
		<edge from-layer="1890" from-port="2" to-layer="1921" to-port="0" />
		<edge from-layer="1891" from-port="0" to-layer="1892" to-port="0" />
		<edge from-layer="1892" from-port="1" to-layer="1895" to-port="0" />
		<edge from-layer="1893" from-port="0" to-layer="1894" to-port="0" />
		<edge from-layer="1894" from-port="1" to-layer="1895" to-port="1" />
		<edge from-layer="1895" from-port="2" to-layer="1896" to-port="1" />
		<edge from-layer="1896" from-port="2" to-layer="1899" to-port="0" />
		<edge from-layer="1897" from-port="0" to-layer="1898" to-port="0" />
		<edge from-layer="1898" from-port="1" to-layer="1899" to-port="1" />
		<edge from-layer="1899" from-port="2" to-layer="1900" to-port="0" />
		<edge from-layer="1899" from-port="2" to-layer="1904" to-port="0" />
		<edge from-layer="1900" from-port="1" to-layer="1903" to-port="0" />
		<edge from-layer="1901" from-port="0" to-layer="1903" to-port="1" />
		<edge from-layer="1902" from-port="0" to-layer="1903" to-port="2" />
		<edge from-layer="1903" from-port="3" to-layer="1904" to-port="1" />
		<edge from-layer="1904" from-port="2" to-layer="1905" to-port="0" />
		<edge from-layer="1905" from-port="2" to-layer="1921" to-port="1" />
		<edge from-layer="1906" from-port="0" to-layer="1907" to-port="0" />
		<edge from-layer="1907" from-port="1" to-layer="1910" to-port="0" />
		<edge from-layer="1908" from-port="0" to-layer="1909" to-port="0" />
		<edge from-layer="1909" from-port="1" to-layer="1910" to-port="1" />
		<edge from-layer="1910" from-port="2" to-layer="1911" to-port="1" />
		<edge from-layer="1911" from-port="2" to-layer="1914" to-port="0" />
		<edge from-layer="1912" from-port="0" to-layer="1913" to-port="0" />
		<edge from-layer="1913" from-port="1" to-layer="1914" to-port="1" />
		<edge from-layer="1914" from-port="2" to-layer="1919" to-port="0" />
		<edge from-layer="1914" from-port="2" to-layer="1915" to-port="0" />
		<edge from-layer="1915" from-port="1" to-layer="1918" to-port="0" />
		<edge from-layer="1916" from-port="0" to-layer="1918" to-port="1" />
		<edge from-layer="1917" from-port="0" to-layer="1918" to-port="2" />
		<edge from-layer="1918" from-port="3" to-layer="1919" to-port="1" />
		<edge from-layer="1919" from-port="2" to-layer="1920" to-port="0" />
		<edge from-layer="1920" from-port="2" to-layer="1921" to-port="2" />
		<edge from-layer="1921" from-port="3" to-layer="1922" to-port="0" />
		<edge from-layer="1922" from-port="1" to-layer="1924" to-port="0" />
		<edge from-layer="1923" from-port="0" to-layer="1924" to-port="1" />
		<edge from-layer="1924" from-port="2" to-layer="1925" to-port="1" />
		<edge from-layer="1925" from-port="2" to-layer="1927" to-port="0" />
		<edge from-layer="1925" from-port="2" to-layer="1974" to-port="0" />
		<edge from-layer="1925" from-port="2" to-layer="1942" to-port="0" />
		<edge from-layer="1926" from-port="0" to-layer="1927" to-port="1" />
		<edge from-layer="1927" from-port="2" to-layer="1940" to-port="0" />
		<edge from-layer="1927" from-port="2" to-layer="1929" to-port="0" />
		<edge from-layer="1928" from-port="0" to-layer="1933" to-port="0" />
		<edge from-layer="1929" from-port="1" to-layer="1932" to-port="0" />
		<edge from-layer="1930" from-port="0" to-layer="1932" to-port="1" />
		<edge from-layer="1931" from-port="0" to-layer="1932" to-port="2" />
		<edge from-layer="1932" from-port="3" to-layer="1935" to-port="2" />
		<edge from-layer="1932" from-port="3" to-layer="1933" to-port="1" />
		<edge from-layer="1933" from-port="2" to-layer="1935" to-port="0" />
		<edge from-layer="1934" from-port="0" to-layer="1935" to-port="1" />
		<edge from-layer="1935" from-port="3" to-layer="1937" to-port="0" />
		<edge from-layer="1936" from-port="0" to-layer="1937" to-port="1" />
		<edge from-layer="1937" from-port="2" to-layer="1939" to-port="0" />
		<edge from-layer="1938" from-port="0" to-layer="1939" to-port="1" />
		<edge from-layer="1939" from-port="2" to-layer="1940" to-port="1" />
		<edge from-layer="1940" from-port="3" to-layer="1979" to-port="0" />
		<edge from-layer="1940" from-port="3" to-layer="1954" to-port="0" />
		<edge from-layer="1941" from-port="0" to-layer="1947" to-port="0" />
		<edge from-layer="1942" from-port="1" to-layer="1945" to-port="0" />
		<edge from-layer="1942" from-port="1" to-layer="1985" to-port="0" />
		<edge from-layer="1942" from-port="1" to-layer="1977" to-port="0" />
		<edge from-layer="1942" from-port="1" to-layer="1969" to-port="0" />
		<edge from-layer="1943" from-port="0" to-layer="1945" to-port="1" />
		<edge from-layer="1944" from-port="0" to-layer="1945" to-port="2" />
		<edge from-layer="1945" from-port="3" to-layer="2139" to-port="1" />
		<edge from-layer="1945" from-port="3" to-layer="2014" to-port="0" />
		<edge from-layer="1945" from-port="3" to-layer="2003" to-port="1" />
		<edge from-layer="1945" from-port="3" to-layer="1947" to-port="1" />
		<edge from-layer="1946" from-port="0" to-layer="1947" to-port="2" />
		<edge from-layer="1947" from-port="3" to-layer="1949" to-port="0" />
		<edge from-layer="1948" from-port="0" to-layer="1949" to-port="1" />
		<edge from-layer="1949" from-port="2" to-layer="1953" to-port="0" />
		<edge from-layer="1949" from-port="2" to-layer="1978" to-port="0" />
		<edge from-layer="1950" from-port="0" to-layer="1952" to-port="1" />
		<edge from-layer="1951" from-port="0" to-layer="1952" to-port="2" />
		<edge from-layer="1952" from-port="3" to-layer="1953" to-port="1" />
		<edge from-layer="1953" from-port="2" to-layer="1954" to-port="1" />
		<edge from-layer="1954" from-port="2" to-layer="1963" to-port="0" />
		<edge from-layer="1954" from-port="2" to-layer="1956" to-port="1" />
		<edge from-layer="1955" from-port="0" to-layer="1956" to-port="2" />
		<edge from-layer="1956" from-port="3" to-layer="1962" to-port="0" />
		<edge from-layer="1957" from-port="0" to-layer="1961" to-port="0" />
		<edge from-layer="1958" from-port="0" to-layer="1960" to-port="1" />
		<edge from-layer="1959" from-port="0" to-layer="1960" to-port="2" />
		<edge from-layer="1960" from-port="3" to-layer="1964" to-port="1" />
		<edge from-layer="1960" from-port="3" to-layer="1961" to-port="1" />
		<edge from-layer="1961" from-port="2" to-layer="1962" to-port="1" />
		<edge from-layer="1962" from-port="2" to-layer="1965" to-port="0" />
		<edge from-layer="1963" from-port="1" to-layer="1964" to-port="0" />
		<edge from-layer="1964" from-port="2" to-layer="1965" to-port="1" />
		<edge from-layer="1965" from-port="2" to-layer="2023" to-port="0" />
		<edge from-layer="1965" from-port="2" to-layer="2032" to-port="0" />
		<edge from-layer="1965" from-port="2" to-layer="1998" to-port="0" />
		<edge from-layer="1966" from-port="0" to-layer="1969" to-port="1" />
		<edge from-layer="1967" from-port="0" to-layer="1969" to-port="2" />
		<edge from-layer="1968" from-port="0" to-layer="1969" to-port="3" />
		<edge from-layer="1969" from-port="4" to-layer="1971" to-port="0" />
		<edge from-layer="1970" from-port="0" to-layer="1971" to-port="1" />
		<edge from-layer="1971" from-port="2" to-layer="1973" to-port="0" />
		<edge from-layer="1972" from-port="0" to-layer="1973" to-port="1" />
		<edge from-layer="1973" from-port="2" to-layer="1974" to-port="1" />
		<edge from-layer="1974" from-port="2" to-layer="1981" to-port="0" />
		<edge from-layer="1975" from-port="0" to-layer="1977" to-port="1" />
		<edge from-layer="1976" from-port="0" to-layer="1977" to-port="2" />
		<edge from-layer="1977" from-port="3" to-layer="1978" to-port="1" />
		<edge from-layer="1978" from-port="2" to-layer="1979" to-port="1" />
		<edge from-layer="1979" from-port="2" to-layer="1988" to-port="0" />
		<edge from-layer="1979" from-port="2" to-layer="1981" to-port="1" />
		<edge from-layer="1980" from-port="0" to-layer="1981" to-port="2" />
		<edge from-layer="1981" from-port="3" to-layer="1987" to-port="0" />
		<edge from-layer="1982" from-port="0" to-layer="1986" to-port="0" />
		<edge from-layer="1983" from-port="0" to-layer="1985" to-port="1" />
		<edge from-layer="1984" from-port="0" to-layer="1985" to-port="2" />
		<edge from-layer="1985" from-port="3" to-layer="1986" to-port="1" />
		<edge from-layer="1985" from-port="3" to-layer="1989" to-port="1" />
		<edge from-layer="1986" from-port="2" to-layer="1987" to-port="1" />
		<edge from-layer="1987" from-port="2" to-layer="1990" to-port="0" />
		<edge from-layer="1988" from-port="1" to-layer="1989" to-port="0" />
		<edge from-layer="1989" from-port="2" to-layer="1990" to-port="1" />
		<edge from-layer="1990" from-port="2" to-layer="1992" to-port="0" />
		<edge from-layer="1990" from-port="2" to-layer="2053" to-port="0" />
		<edge from-layer="1991" from-port="0" to-layer="1992" to-port="1" />
		<edge from-layer="1992" from-port="2" to-layer="2064" to-port="0" />
		<edge from-layer="1992" from-port="2" to-layer="1998" to-port="1" />
		<edge from-layer="1993" from-port="0" to-layer="1998" to-port="2" />
		<edge from-layer="1994" from-port="0" to-layer="1995" to-port="0" />
		<edge from-layer="1995" from-port="1" to-layer="1998" to-port="3" />
		<edge from-layer="1996" from-port="0" to-layer="1997" to-port="0" />
		<edge from-layer="1997" from-port="1" to-layer="1998" to-port="4" />
		<edge from-layer="1998" from-port="5" to-layer="2000" to-port="0" />
		<edge from-layer="1998" from-port="5" to-layer="2008" to-port="0" />
		<edge from-layer="1998" from-port="5" to-layer="2035" to-port="0" />
		<edge from-layer="1999" from-port="0" to-layer="2000" to-port="2" />
		<edge from-layer="2000" from-port="3" to-layer="2006" to-port="0" />
		<edge from-layer="2000" from-port="3" to-layer="2039" to-port="0" />
		<edge from-layer="2000" from-port="3" to-layer="2074" to-port="0" />
		<edge from-layer="2001" from-port="0" to-layer="2003" to-port="0" />
		<edge from-layer="2002" from-port="0" to-layer="2003" to-port="2" />
		<edge from-layer="2003" from-port="3" to-layer="2005" to-port="0" />
		<edge from-layer="2004" from-port="0" to-layer="2005" to-port="1" />
		<edge from-layer="2005" from-port="2" to-layer="2006" to-port="1" />
		<edge from-layer="2006" from-port="2" to-layer="2019" to-port="0" />
		<edge from-layer="2006" from-port="2" to-layer="2022" to-port="0" />
		<edge from-layer="2007" from-port="0" to-layer="2008" to-port="2" />
		<edge from-layer="2008" from-port="3" to-layer="2010" to-port="0" />
		<edge from-layer="2008" from-port="3" to-layer="2068" to-port="0" />
		<edge from-layer="2009" from-port="0" to-layer="2010" to-port="1" />
		<edge from-layer="2010" from-port="2" to-layer="2012" to-port="0" />
		<edge from-layer="2011" from-port="0" to-layer="2012" to-port="1" />
		<edge from-layer="2012" from-port="2" to-layer="2017" to-port="0" />
		<edge from-layer="2013" from-port="0" to-layer="2014" to-port="1" />
		<edge from-layer="2014" from-port="2" to-layer="2016" to-port="0" />
		<edge from-layer="2014" from-port="2" to-layer="2091" to-port="0" />
		<edge from-layer="2015" from-port="0" to-layer="2016" to-port="1" />
		<edge from-layer="2016" from-port="2" to-layer="2017" to-port="1" />
		<edge from-layer="2017" from-port="2" to-layer="2019" to-port="1" />
		<edge from-layer="2018" from-port="0" to-layer="2019" to-port="2" />
		<edge from-layer="2019" from-port="3" to-layer="2103" to-port="0" />
		<edge from-layer="2020" from-port="0" to-layer="2102" to-port="0" />
		<edge from-layer="2021" from-port="0" to-layer="2022" to-port="1" />
		<edge from-layer="2022" from-port="2" to-layer="2095" to-port="0" />
		<edge from-layer="2023" from-port="1" to-layer="2038" to-port="0" />
		<edge from-layer="2023" from-port="1" to-layer="2027" to-port="0" />
		<edge from-layer="2023" from-port="1" to-layer="2046" to-port="0" />
		<edge from-layer="2024" from-port="0" to-layer="2027" to-port="1" />
		<edge from-layer="2025" from-port="0" to-layer="2027" to-port="2" />
		<edge from-layer="2026" from-port="0" to-layer="2027" to-port="3" />
		<edge from-layer="2027" from-port="4" to-layer="2029" to-port="0" />
		<edge from-layer="2028" from-port="0" to-layer="2029" to-port="1" />
		<edge from-layer="2029" from-port="2" to-layer="2031" to-port="0" />
		<edge from-layer="2030" from-port="0" to-layer="2031" to-port="1" />
		<edge from-layer="2031" from-port="2" to-layer="2032" to-port="1" />
		<edge from-layer="2032" from-port="2" to-layer="2042" to-port="0" />
		<edge from-layer="2033" from-port="0" to-layer="2035" to-port="1" />
		<edge from-layer="2034" from-port="0" to-layer="2035" to-port="2" />
		<edge from-layer="2035" from-port="3" to-layer="2069" to-port="0" />
		<edge from-layer="2035" from-port="3" to-layer="2040" to-port="0" />
		<edge from-layer="2036" from-port="0" to-layer="2038" to-port="1" />
		<edge from-layer="2037" from-port="0" to-layer="2038" to-port="2" />
		<edge from-layer="2038" from-port="3" to-layer="2039" to-port="1" />
		<edge from-layer="2039" from-port="2" to-layer="2040" to-port="1" />
		<edge from-layer="2040" from-port="2" to-layer="2049" to-port="0" />
		<edge from-layer="2040" from-port="2" to-layer="2042" to-port="1" />
		<edge from-layer="2041" from-port="0" to-layer="2042" to-port="2" />
		<edge from-layer="2042" from-port="3" to-layer="2048" to-port="0" />
		<edge from-layer="2043" from-port="0" to-layer="2047" to-port="0" />
		<edge from-layer="2044" from-port="0" to-layer="2046" to-port="1" />
		<edge from-layer="2045" from-port="0" to-layer="2046" to-port="2" />
		<edge from-layer="2046" from-port="3" to-layer="2050" to-port="1" />
		<edge from-layer="2046" from-port="3" to-layer="2047" to-port="1" />
		<edge from-layer="2047" from-port="2" to-layer="2048" to-port="1" />
		<edge from-layer="2048" from-port="2" to-layer="2051" to-port="0" />
		<edge from-layer="2049" from-port="1" to-layer="2050" to-port="0" />
		<edge from-layer="2050" from-port="2" to-layer="2051" to-port="1" />
		<edge from-layer="2051" from-port="2" to-layer="2084" to-port="0" />
		<edge from-layer="2052" from-port="0" to-layer="2053" to-port="1" />
		<edge from-layer="2053" from-port="2" to-layer="2063" to-port="0" />
		<edge from-layer="2053" from-port="2" to-layer="2054" to-port="0" />
		<edge from-layer="2054" from-port="1" to-layer="2058" to-port="0" />
		<edge from-layer="2055" from-port="0" to-layer="2058" to-port="1" />
		<edge from-layer="2056" from-port="0" to-layer="2058" to-port="2" />
		<edge from-layer="2057" from-port="0" to-layer="2058" to-port="3" />
		<edge from-layer="2058" from-port="4" to-layer="2060" to-port="0" />
		<edge from-layer="2059" from-port="0" to-layer="2060" to-port="1" />
		<edge from-layer="2060" from-port="2" to-layer="2062" to-port="0" />
		<edge from-layer="2061" from-port="0" to-layer="2062" to-port="1" />
		<edge from-layer="2062" from-port="2" to-layer="2063" to-port="1" />
		<edge from-layer="2063" from-port="2" to-layer="2077" to-port="0" />
		<edge from-layer="2064" from-port="1" to-layer="2072" to-port="0" />
		<edge from-layer="2064" from-port="1" to-layer="2067" to-port="0" />
		<edge from-layer="2065" from-port="0" to-layer="2067" to-port="1" />
		<edge from-layer="2066" from-port="0" to-layer="2067" to-port="2" />
		<edge from-layer="2067" from-port="3" to-layer="2073" to-port="0" />
		<edge from-layer="2067" from-port="3" to-layer="2068" to-port="1" />
		<edge from-layer="2068" from-port="2" to-layer="2069" to-port="1" />
		<edge from-layer="2069" from-port="2" to-layer="2075" to-port="0" />
		<edge from-layer="2070" from-port="0" to-layer="2072" to-port="1" />
		<edge from-layer="2071" from-port="0" to-layer="2072" to-port="2" />
		<edge from-layer="2072" from-port="3" to-layer="2073" to-port="1" />
		<edge from-layer="2073" from-port="2" to-layer="2074" to-port="1" />
		<edge from-layer="2074" from-port="2" to-layer="2075" to-port="1" />
		<edge from-layer="2075" from-port="2" to-layer="2080" to-port="0" />
		<edge from-layer="2075" from-port="2" to-layer="2077" to-port="1" />
		<edge from-layer="2076" from-port="0" to-layer="2077" to-port="2" />
		<edge from-layer="2077" from-port="3" to-layer="2079" to-port="0" />
		<edge from-layer="2078" from-port="0" to-layer="2079" to-port="1" />
		<edge from-layer="2079" from-port="2" to-layer="2081" to-port="0" />
		<edge from-layer="2080" from-port="1" to-layer="2081" to-port="1" />
		<edge from-layer="2081" from-port="2" to-layer="2083" to-port="0" />
		<edge from-layer="2082" from-port="0" to-layer="2083" to-port="1" />
		<edge from-layer="2083" from-port="2" to-layer="2084" to-port="1" />
		<edge from-layer="2084" from-port="2" to-layer="2086" to-port="0" />
		<edge from-layer="2085" from-port="0" to-layer="2086" to-port="1" />
		<edge from-layer="2086" from-port="2" to-layer="2088" to-port="0" />
		<edge from-layer="2087" from-port="0" to-layer="2088" to-port="1" />
		<edge from-layer="2088" from-port="2" to-layer="2092" to-port="0" />
		<edge from-layer="2089" from-port="0" to-layer="2091" to-port="1" />
		<edge from-layer="2090" from-port="0" to-layer="2091" to-port="2" />
		<edge from-layer="2091" from-port="3" to-layer="2092" to-port="1" />
		<edge from-layer="2092" from-port="2" to-layer="2095" to-port="1" />
		<edge from-layer="2093" from-port="0" to-layer="2094" to-port="0" />
		<edge from-layer="2094" from-port="1" to-layer="2095" to-port="2" />
		<edge from-layer="2095" from-port="3" to-layer="2096" to-port="0" />
		<edge from-layer="2095" from-port="3" to-layer="2120" to-port="0" />
		<edge from-layer="2096" from-port="1" to-layer="2099" to-port="0" />
		<edge from-layer="2097" from-port="0" to-layer="2099" to-port="1" />
		<edge from-layer="2098" from-port="0" to-layer="2099" to-port="2" />
		<edge from-layer="2099" from-port="3" to-layer="2101" to-port="0" />
		<edge from-layer="2099" from-port="3" to-layer="2118" to-port="0" />
		<edge from-layer="2100" from-port="0" to-layer="2101" to-port="1" />
		<edge from-layer="2101" from-port="2" to-layer="2102" to-port="1" />
		<edge from-layer="2102" from-port="2" to-layer="2103" to-port="1" />
		<edge from-layer="2103" from-port="2" to-layer="2104" to-port="0" />
		<edge from-layer="2103" from-port="2" to-layer="2113" to-port="0" />
		<edge from-layer="2104" from-port="1" to-layer="2108" to-port="0" />
		<edge from-layer="2104" from-port="1" to-layer="2144" to-port="0" />
		<edge from-layer="2105" from-port="0" to-layer="2108" to-port="1" />
		<edge from-layer="2106" from-port="0" to-layer="2108" to-port="2" />
		<edge from-layer="2107" from-port="0" to-layer="2108" to-port="3" />
		<edge from-layer="2108" from-port="4" to-layer="2110" to-port="0" />
		<edge from-layer="2109" from-port="0" to-layer="2110" to-port="1" />
		<edge from-layer="2110" from-port="2" to-layer="2112" to-port="0" />
		<edge from-layer="2111" from-port="0" to-layer="2112" to-port="1" />
		<edge from-layer="2112" from-port="2" to-layer="2113" to-port="1" />
		<edge from-layer="2113" from-port="2" to-layer="2148" to-port="0" />
		<edge from-layer="2114" from-port="0" to-layer="2115" to-port="0" />
		<edge from-layer="2115" from-port="1" to-layer="2119" to-port="0" />
		<edge from-layer="2116" from-port="0" to-layer="2118" to-port="1" />
		<edge from-layer="2117" from-port="0" to-layer="2118" to-port="2" />
		<edge from-layer="2118" from-port="3" to-layer="2119" to-port="1" />
		<edge from-layer="2119" from-port="2" to-layer="2120" to-port="1" />
		<edge from-layer="2120" from-port="2" to-layer="2123" to-port="0" />
		<edge from-layer="2120" from-port="2" to-layer="2154" to-port="0" />
		<edge from-layer="2120" from-port="2" to-layer="2163" to-port="0" />
		<edge from-layer="2121" from-port="0" to-layer="2123" to-port="1" />
		<edge from-layer="2122" from-port="0" to-layer="2123" to-port="2" />
		<edge from-layer="2123" from-port="3" to-layer="2125" to-port="0" />
		<edge from-layer="2123" from-port="3" to-layer="2136" to-port="0" />
		<edge from-layer="2124" from-port="0" to-layer="2129" to-port="0" />
		<edge from-layer="2125" from-port="1" to-layer="2128" to-port="0" />
		<edge from-layer="2126" from-port="0" to-layer="2128" to-port="1" />
		<edge from-layer="2127" from-port="0" to-layer="2128" to-port="2" />
		<edge from-layer="2128" from-port="3" to-layer="2131" to-port="2" />
		<edge from-layer="2128" from-port="3" to-layer="2129" to-port="1" />
		<edge from-layer="2129" from-port="2" to-layer="2131" to-port="0" />
		<edge from-layer="2130" from-port="0" to-layer="2131" to-port="1" />
		<edge from-layer="2131" from-port="3" to-layer="2133" to-port="0" />
		<edge from-layer="2132" from-port="0" to-layer="2133" to-port="1" />
		<edge from-layer="2133" from-port="2" to-layer="2135" to-port="0" />
		<edge from-layer="2134" from-port="0" to-layer="2135" to-port="1" />
		<edge from-layer="2135" from-port="2" to-layer="2136" to-port="1" />
		<edge from-layer="2136" from-port="3" to-layer="2146" to-port="0" />
		<edge from-layer="2136" from-port="3" to-layer="2168" to-port="0" />
		<edge from-layer="2137" from-port="0" to-layer="2139" to-port="0" />
		<edge from-layer="2138" from-port="0" to-layer="2139" to-port="2" />
		<edge from-layer="2139" from-port="3" to-layer="2141" to-port="0" />
		<edge from-layer="2140" from-port="0" to-layer="2141" to-port="1" />
		<edge from-layer="2141" from-port="2" to-layer="2145" to-port="0" />
		<edge from-layer="2141" from-port="2" to-layer="2167" to-port="0" />
		<edge from-layer="2142" from-port="0" to-layer="2144" to-port="1" />
		<edge from-layer="2143" from-port="0" to-layer="2144" to-port="2" />
		<edge from-layer="2144" from-port="3" to-layer="2145" to-port="1" />
		<edge from-layer="2145" from-port="2" to-layer="2146" to-port="1" />
		<edge from-layer="2146" from-port="2" to-layer="2151" to-port="0" />
		<edge from-layer="2146" from-port="2" to-layer="2148" to-port="1" />
		<edge from-layer="2147" from-port="0" to-layer="2148" to-port="2" />
		<edge from-layer="2148" from-port="3" to-layer="2150" to-port="0" />
		<edge from-layer="2149" from-port="0" to-layer="2150" to-port="1" />
		<edge from-layer="2150" from-port="2" to-layer="2152" to-port="0" />
		<edge from-layer="2151" from-port="1" to-layer="2152" to-port="1" />
		<edge from-layer="2152" from-port="2" to-layer="2153" to-port="0" />
		<edge from-layer="2154" from-port="1" to-layer="2158" to-port="0" />
		<edge from-layer="2154" from-port="1" to-layer="2174" to-port="0" />
		<edge from-layer="2154" from-port="1" to-layer="2166" to-port="0" />
		<edge from-layer="2155" from-port="0" to-layer="2158" to-port="1" />
		<edge from-layer="2156" from-port="0" to-layer="2158" to-port="2" />
		<edge from-layer="2157" from-port="0" to-layer="2158" to-port="3" />
		<edge from-layer="2158" from-port="4" to-layer="2160" to-port="0" />
		<edge from-layer="2159" from-port="0" to-layer="2160" to-port="1" />
		<edge from-layer="2160" from-port="2" to-layer="2162" to-port="0" />
		<edge from-layer="2161" from-port="0" to-layer="2162" to-port="1" />
		<edge from-layer="2162" from-port="2" to-layer="2163" to-port="1" />
		<edge from-layer="2163" from-port="2" to-layer="2170" to-port="0" />
		<edge from-layer="2164" from-port="0" to-layer="2166" to-port="1" />
		<edge from-layer="2165" from-port="0" to-layer="2166" to-port="2" />
		<edge from-layer="2166" from-port="3" to-layer="2167" to-port="1" />
		<edge from-layer="2167" from-port="2" to-layer="2168" to-port="1" />
		<edge from-layer="2168" from-port="2" to-layer="2170" to-port="1" />
		<edge from-layer="2168" from-port="2" to-layer="2177" to-port="0" />
		<edge from-layer="2169" from-port="0" to-layer="2170" to-port="2" />
		<edge from-layer="2170" from-port="3" to-layer="2176" to-port="0" />
		<edge from-layer="2171" from-port="0" to-layer="2175" to-port="0" />
		<edge from-layer="2172" from-port="0" to-layer="2174" to-port="1" />
		<edge from-layer="2173" from-port="0" to-layer="2174" to-port="2" />
		<edge from-layer="2174" from-port="3" to-layer="2175" to-port="1" />
		<edge from-layer="2174" from-port="3" to-layer="2178" to-port="1" />
		<edge from-layer="2175" from-port="2" to-layer="2176" to-port="1" />
		<edge from-layer="2176" from-port="2" to-layer="2179" to-port="0" />
		<edge from-layer="2177" from-port="1" to-layer="2178" to-port="0" />
		<edge from-layer="2178" from-port="2" to-layer="2179" to-port="1" />
		<edge from-layer="2179" from-port="2" to-layer="2180" to-port="0" />
	</edges>
	<rt_info>
		<MO_version value="2023.3.0-13775-ceeafaf64f3-releases/2023/3" />
		<Runtime_version value="2023.3.0-13775-ceeafaf64f3-releases/2023/3" />
		<conversion_parameters>
			<input value="image" />
			<input_model value="DIR/model_ready.onnx" />
			<input_shape value="[-1, 3, 416, 416]" />
			<is_python_api_used value="False" />
			<mean_values value="[123.675, 116.28, 103.53]" />
			<model_name value="model" />
			<output value="boxes,labels" />
			<output_dir value="DIR" />
			<scale_values value="[58.395, 57.12, 57.375]" />
		</conversion_parameters>
		<legacy_frontend value="False" />
		<model_info>
			<confidence_threshold value="0.47500000000000003" />
			<iou_threshold value="0.5" />
			<label_ids value="668f63e29e37e79b86d7ffce 668f63e29e37e79b86d7ffcf" />
			<labels value="vehicle pedestrian" />
			<model_type value="ssd" />
			<task_type value="detection" />
			<use_ellipse_shapes value="False" />
		</model_info>
		<nncf>
			<quantization>
				<advanced_parameters value="{}" />
				<fast_bias_correction value="True" />
				<ignored_scope value="None" />
				<model_type value="None" />
				<preset value="QuantizationPreset.PERFORMANCE" />
				<subset_size value="300" />
				<target_device value="ANY" />
			</quantization>
		</nncf>
	</rt_info>
</net>
